app/src/main/assets/ae-basic.lite (tflite, 204980 bytes, 4 tensors)

encoding/MatMul_bias f4 [32]
00000000: a314 4440 9757 75bd 941c 8e3f 23cf 06bf
00000010: 1591 75bd 0a1c 69bd af16 b73e 0118 8abf
00000020: 3b2c 9abf 4fb8 4e40 e89d 3640 cc21 3b40
00000030: 8419 04bf fe3b 59be 19c8 d43f 59b3 8a3f
00000040: dd7c 1e3f 16b1 ebbe 2ec8 833e cb63 fa3f
00000050: b0ff 2040 7c16 30bf bef5 d9be e6a6 0440
00000060: d817 51bd a78a 75bd e445 65bd a59e 75bd
00000070: 53ba 9a3f ba8e f73f e148 0d40 b19a 3c40
3.0637596 -0.059897985 1.1102471 -0.52659816 -0.059952814 -0.056911506 0.35759494 -1.0788575
-1.2044748 3.2299993 2.8533878 2.9239378 -0.51601434 -0.21214291 1.6623565 1.0835983
0.61909276 -0.46033543 0.25738662 1.9561704 2.515606 -0.6878431 -0.425703 2.0726867
-0.05104813 -0.059946682 -0.055974856 -0.05996575 1.2088112 1.9340432 2.2075732 2.9469416

encoding/weights/transpose f4 [32, 784]
00000000: 6851 ec3d 6614 883d f00f 78bd a0d2 97bd
00000010: 0571 003d 0c79 203b 7a69 1f3a 9f59 dbbc
00000020: 23a7 b5bd e5b4 d2bb d362 e4bc 13e0 95bd
00000030: 9588 93bd 11d8 92be 51be aebd d094 cabd
00000040: 29f4 b3bc c469 a9bd 7652 89bc 4598 1a3d
00000050: f29c 0e3e 7ef9 a63b 1815 cb3d 8b57 fa3d
00000060: 4454 473d 7b3b a7bd 17b5 18be 66b6 443d
00000070: d377 d93d f992 ccbd 2122 883d 83c3 90bd
00000080: f225 d8bd f145 afbe 310f 2b3e ea46 413e
00000090: 80dc 143d 1c4a 0ebd 73d6 9f3d be0b eb3d
000000a0: 8d4f 473e c73b a33d 40c6 163e 2f15 14be
000000b0: 93e1 933d bd8c c63d 3f0f 6bbe 56bb 083e
000000c0: 459e 2cbe eb99 1fbe cbdb b1be fa89 fbbd
000000d0: e4a7 abbc 3283 dc3b 220e 49be ed2c eebc
000000e0: 2bc9 133d 4e09 0cbc 3ea5 623e b5cd f33c
000000f0: 6916 56be 8783 8ebd a665 2dbe e1c8 2d3c
00000100: 9669 16bc a859 b13d c5d1 23be 0292 763d
00000110: 8eb4 88bd e15f b03d 0a42 fb3d 9789 c43d
00000120: 5e48 bb3c c0cc 833d 961c 1dbe fbcd cb3c
00000130: 97ab 1f3e cf4f b33d 5aa9 b03c eaa3 87be
00000140: 9ce9 d33d 9175 b33d a309 66bd 6fae 2fbe
00000150: b9f2 2cbd fb25 d33c b09c c6bd 6cf9 653d
00000160: f277 473d ee1e 38be 112b 8c3d 13cf 59bb
00000170: 0a02 2a3c 5045 383d e184 603d 1070 d2bc
00000180: 6a33 233d 0ee9 caba 542a 72bd 518c 97bc
00000190: 9002 03be c88d a0bd bfbd a7bd c164 413d
000001a0: 2b4a 473d 95a4 953d 82f2 183d 6eb0 65be
000001b0: c791 7cbe 53f7 66be b32d 883e 51d8 a7bc
000001c0: 685b 343b ec45 953d a567 80be e074 363e
000001d0: 3840 89be 4d66 b4bd 4c8e dcbb 92ba eebb
000001e0: 069d eebd e3ab 23bd b560 04bd e73b 9cbc
000001f0: c7bd 91bd 270b cebd 1fd0 e6bd 74e7 38be
00000200: 2eaa 30be 0a0b e9bd 90b2 0ebe 867c 02bd
00000210: 2c77 7bbc 0dea b03d 6108 c2bd c1ea 87bd
00000220: 6dc1 b5be 09fb 50be 285f a73d 5c09 b13d
00000230: ca6d 823d 2f1e f8bd d3cb 91be a8a0 80be
00000240: d960 01be 3c96 073d 58fc 98bd 336e 4a3c
00000250: 6b33 f7bb c0be 643c 7387 0cbd 3bc9 0ebd
00000260: daed 84bd 521b edbd e83e 30be 0cdf 23be
00000270: 6004 e7bd 06c3 8ebd a9a1 26bd eaee 9cbb
00000280: 40d5 163d 174b 9d3d 115b 4d3d a747 a53d
00000290: ce49 1c3d df4e 85bc 99f8 03be 952b 563e
000002a0: d276 0c3e 62da ca3e f42b 65be 2e70 bf3e
000002b0: e9b4 66bd 89cc fcbd 56a8 da3d 6c6c d03d
000002c0: b318 333d e75d 9b3d 9c04 87bb ca49 6b3c
000002d0: ef8a 35bd 2386 7dbd 8662 f4bd f9a3 cabd
000002e0: 3b18 05bd 8d45 a2bc 5b7f 593d b598 dd3c
000002f0: 8438 073d 4771 9a3d 5390 063d 5058 923b
00000300: 5c10 6ebd ff9e cebd 302a 88bd 5f3f 94bd
00000310: 17db ee3e ddcb f23c dc0a d33d 46a8 6b3d
00000320: a631 623c e71d 0a3e 1178 153e 3d6c 343e
00000330: ac7e 023e 4f1a 113e ca83 903d 56b0 133c
00000340: e638 89bb 80b6 7c3c 65ab 43bd 8a81 453d
00000350: 8c9f 863c b7c5 bd3d f71c d83c f23a 943d
00000360: 6f10 d23d 06ce a73c 2e7a 983c 5c71 a0bd
00000370: 4ea2 983d 85bb 0ebe 959f 83bd 9de0 cabc
00000380: 572c b03e c78e 18bf b187 a1bc 7250 08be
00000390: 444a d43d 80d3 b83d 6de8 6d3e a588 3a3e
000003a0: 8305 583e 6733 013e 1c22 9a3d 5efd 7d3d
000003b0: aa1c 8fba 2e0f 9e3d 811b 303e a6d3 123e
000003c0: 2153 e93d d7db 153d 83cf aa3d b95f 843d
000003d0: 2748 16bc 203a 73bc e11b 61bd 56ca 8dbd
000003e0: 6162 0abe 18a0 9dbd eb6c 0fbe b7ee 2fbe
000003f0: b9df 003f 7cdd c6bd 8e9c 393e d9fb 08bd
0.115389645 0.06644516 -0.060562074 -0.074132204 0.031357784 0.0024486212 0.0006081086 -0.026776133
-0.088697694 -0.0064302557 -0.027879154 -0.073181294 -0.07203785 -0.2868047 -0.08532394 -0.09891665
-0.02196701 -0.08272126 -0.016762953 0.03774287 0.13927057 0.0050956598 0.09916133 0.12223729
0.048664346 -0.08165642 -0.1491283 0.04802551 0.10618558 -0.0998897 0.066471346 -0.07068541
-0.105541125 -0.3423305 0.16705014 0.18874708 0.036343098 -0.034738645 0.07804575 0.11476849
0.1946394 0.07970386 0.14724064 -0.14461206 0.07220759 0.096948124 -0.22955035 0.13352713
-0.1685725 -0.15586059 -0.34738 -0.12282176 -0.02095408 0.006729507 -0.19634297 -0.029074157
0.03608052 -0.00854714 0.22133347 0.029761175 -0.20906986 -0.069586806 -0.16933307 0.010606975
-0.009180447 0.08659679 -0.1599799 0.060197838 -0.06675063 0.086120375 0.12268455 0.09596556
0.022861656 0.06435537 -0.15342936 0.024878493 0.155928 0.08755457 0.021565128 -0.26492244
0.10347292 0.087626584 -0.056161534 -0.17156385 -0.042223666 0.025774946 -0.096978545 0.05614607
0.048698373 -0.17980549 0.06844152 -0.0033234998 0.010376463 0.044987977 0.054814223 -0.025688201
0.039843954 -0.0015480833 -0.0591224 -0.018499525 -0.12793946 -0.078395426 -0.08190488 0.047215227
0.048654716 0.07306782 0.03734065 -0.22430584 -0.24664985 -0.22555284 0.26597366 -0.02048889
0.0027520303 0.07288727 -0.25079075 0.17818022 -0.26806808 -0.08808575 -0.0067308303 -0.0072854245
-0.116510436 -0.039958846 -0.03231879 -0.019071532 -0.07116275 -0.10060721 -0.11270165 -0.18057042
-0.17252418 -0.11379059 -0.13935304 -0.031857036 -0.015348237 0.08638392 -0.094742544 -0.06636573
-0.35499135 -0.20408262 0.081724465 0.08644363 0.06368597 -0.12115132 -0.28475818 -0.2512257
-0.126346 0.03310226 -0.07470006 0.012355375 -0.0075439713 0.013961494 -0.034308862 -0.034859877
-0.06490679 -0.115774766 -0.17211497 -0.16003054 -0.11280131 -0.069707915 -0.040681515 -0.004789223
0.036824465 0.07680338 0.050135676 0.08070307 0.038156323 -0.01627296 -0.12887801 0.20915063
0.13717201 0.39619738 -0.22380048 0.37390274 -0.056324873 -0.123436995 0.10676639 0.1017693
0.043724727 0.0758627 -0.0041204225 0.014360854 -0.04432195 -0.0618955 -0.11932854 -0.098945566
-0.03249381 -0.019808555 0.05309997 0.027050355 0.033012882 0.07541137 0.032852482 0.004466094
-0.05812107 -0.1008892 -0.066486716 -0.072386496 0.46651527 0.029638225 0.10304806 0.057533525
0.013805782 0.1348797 0.14596583 0.17619415 0.12743634 0.14170192 0.07056387 0.00901421
-0.004187691 0.015424371 -0.047770876 0.04821924 0.0164335 0.09266227 0.026380999 0.072378054
0.10257041 0.020483982 0.018612947 -0.078341216 0.07452832 -0.1393872 -0.06426922 -0.024765307
0.3440883 -0.5959286 -0.019718023 -0.13311937 0.103657275 0.090247154 0.23233195 0.18216188
0.21095853 0.12617265 0.07526037 0.062009208 -0.0010918577 0.07717739 0.17197992 0.1433855
0.11392809 0.03658661 0.08340361 0.0646357 -0.009172476 -0.014845401 -0.054958228 -0.06923358
-0.13514091 -0.07696551 -0.14006393 -0.17180906 0.50341374 -0.097102135 0.18126127 -0.033443306

logits/MatMul_bias f4 [784]
00000000: 473b 12be 995c 14be 9a1c 18be 0fb4 0abe
00000010: 3363 0fbe f292 11be 90bb 1abe eef7 25be
00000020: dc45 27be 18a8 35be 40e9 20be 2d3a 23be
00000030: ff7d 13be 0c0c 3ebe 60bc 05be eb8b 35be
00000040: 0a42 3bbe 40b5 21be 8f3d 18be 702b 2ebe
00000050: 2466 27be f9c7 18be 01de 38be da75 19be
00000060: fc9c 31be 617e 2abe 911b 18be 4f7a 26be
00000070: 07c8 1cbe 1dda 2bbe cd7e 05be 5c76 24be
00000080: e9ab 17be bc57 10be 6bbd 16be b267 3dbe
00000090: e91c 27be b595 39be 0780 58be 2d38 7ebe
000000a0: 3eb6 8fbe e08c 72be 5c9a 83be e1f8 77be
000000b0: 1caf 63be 126c 5abe 22c2 36be a12e 39be
000000c0: b662 4bbe 4d2f 25be 6980 3ebe d021 11be
000000d0: 7989 1abe 7d7a 05be bccf 11be 7a22 14be
000000e0: cade 2bbe 34fb 20be 30b6 2fbe ca83 0cbe
000000f0: ff36 1cbe 74b0 17be f2b5 28be 0498 3bbe
00000100: cb97 61be a2fe 9abe 1db3 abbe d3a1 dfbe
00000110: 1334 18bf 99cb 2dbf 7da8 4bbf e4e6 28bf
00000120: 224a 13bf ed2f 08bf 45ee e6be dec2 04bf
00000130: ebdb dcbe c4b8 80be 0038 34be 6f8e 51be
00000140: 06ce 3fbe da9b 25be b277 27be 56ec 24be
00000150: d5f4 0abe 1187 16be 6688 28be bf65 18be
00000160: 4d2c 29be 6b51 2bbe 7c4c 28be 0e50 50be
00000170: 824c 7fbe fbd3 a3be e9b6 03bf 454f 30bf
00000180: f6ba 20bf fe50 84bf 7a0e 5fbf 3e12 5abf
00000190: a92b 27bf 3203 ffbe 2dc9 12bf aca2 debe
000001a0: d081 bcbe 45ba 39be 75e1 3fbe a304 31be
000001b0: 3c69 41be 9f7a 22be 23e8 1cbe 8fd5 20be
000001c0: 286b 10be 198c 33be ec3c 28be 0a17 26be
000001d0: d2da 33be b260 f3bd 1263 b0bc 2a0a b0bd
000001e0: 8ba4 cabd d78b 4cbe 26bb bcbe 0e63 31bf
000001f0: 5e70 6bbf 8552 a7bf fa8a 97bf a16f 56bf
00000200: fbe3 19bf a72e febe b0b0 2abf e6b0 2cbf
00000210: 561a e9be c69a 21be 2edd 4fbd d35b 5bbd
00000220: a286 1fbe 43b6 45be e9aa 1abe 27bc 36be
00000230: ec1f 04be bdb1 2ebe 8615 23be b8b4 28be
00000240: e1f9 0abe b6cf 8a3c 45b5 373e 6cb2 e73d
00000250: 1143 17bd 6f4f 1fbe bdbf 70be 6772 efbe
00000260: 6b7b 23bf f8d7 46bf eefa 38bf 410a e1be
00000270: ba10 e8be 1c4b 1cbf 8ae9 38bf 12b5 67bf
00000280: e4a8 3abf 48a5 70be 402a a83d 1edb 263d
00000290: 060a b4bd 4ddb 1bbe 77e3 22be 26af 1cbe
000002a0: d16a 15be c43b 14be 8dad 2fbe a4d6 18be
000002b0: 5f93 9abd fccb 503e d67b 783e 6984 c53d
000002c0: 1263 06be f211 88be f4da d4be 88b1 fdbe
000002d0: 14bb 0bbf 5c1d 98be 62cb 08bf 9bdc 81be
000002e0: acbc 15bf da95 47bf 58e8 9ebf cc6e 9dbf
000002f0: 4561 88bf 12c1 c7be 002a 6c3e ab75 823e
00000300: 98e0 003a e55b 38be c9d4 5fbe 292d 2dbe
00000310: fc05 24be ba6a 24be f235 37be 53b6 74be
00000320: b001 d4bd 9c1b 6bbd fb84 f6bd cb54 aebe
00000330: b85d 25bf 8795 45bf 5dfd 4cbf bf05 5bbf
00000340: eee0 68bf 065b 43bf ce57 81bf 7578 6abf
00000350: e189 80bf 01c0 a0bf 3804 c7bf 1e24 fcbf
00000360: 1dec c0bf 9311 34bf b1d5 353d 7b61 0e3e
00000370: 34a3 dbbd 847b 9fbe da48 68be 96d4 35be
00000380: 32be 10be 9d69 42be fd71 5abe 1b4b a7be
00000390: 58c8 a5be 66e3 acbe d3cf 0abf 3908 3dbf
000003a0: 2447 72bf 9f06 8dbf 9a28 7bbf 7b42 82bf
000003b0: 45a9 48bf a550 8cbf aee4 c5bf 5404 b0bf
000003c0: cae9 8abf c22a 72bf 3c7b aabf e84d d5bf
000003d0: 9c48 c5bf fe6f 59bf ee66 26be d654 f4bd
000003e0: 915f b4be 6193 d7be fd45 81be 8ba6 29be
000003f0: 7509 27be bde6 43be dbef 69be 4b6f e1be
-0.14280425 -0.14488448 -0.1485466 -0.1354525 -0.14002685 -0.14216211 -0.15110612 -0.16207859
-0.16335243 -0.17739904 -0.15713978 -0.15940161 -0.14403532 -0.18559283 -0.1306014 -0.17729156
-0.1828691 -0.15791798 -0.14867233 -0.17008758 -0.16347557 -0.14920034 -0.18053438 -0.14986363
-0.17345041 -0.16649772 -0.14854266 -0.16257595 -0.1531068 -0.16782422 -0.13036652 -0.16060776
-0.14811672 -0.14095968 -0.14720695 -0.18496588 -0.16319622 -0.18123515 -0.21142589 -0.24826117
-0.28068727 -0.23686552 -0.25703704 -0.24216034 -0.22234768 -0.21330288 -0.17847493 -0.18084194
-0.19861874 -0.16131325 -0.18603672 -0.14173055 -0.15091504 -0.13035007 -0.142394 -0.14466277
-0.16784206 -0.15720826 -0.17159343 -0.13722149 -0.15255354 -0.14813405 -0.16475657 -0.18319708
-0.2203056 -0.30272394 -0.3353509 -0.4367815 -0.5945446 -0.6788879 -0.7955397 -0.6597731
-0.5753499 -0.5319813 -0.4510366 -0.51859844 -0.43136534 -0.25140965 -0.17599487 -0.2046449
-0.18730935 -0.16172734 -0.16354254 -0.1610578 -0.13569959 -0.14699961 -0.16458282 -0.14882563
-0.16520806 -0.16730277 -0.16435426 -0.20343038 -0.24931529 -0.31997666 -0.51450974 -0.68870956
-0.6278528 -1.0337217 -0.87131464 -0.85184085 -0.65300995 -0.49807125 -0.5733822 -0.43483484
-0.3681779 -0.18137462 -0.18738349 -0.17286925 -0.188878 -0.15867089 -0.15322928 -0.15706466
-0.14103377 -0.17533912 -0.1642949 -0.16219726 -0.17563942 -0.118836775 -0.021531615 -0.08595689
-0.09894665 -0.1997522 -0.36861533 -0.6929177 -0.91968334 -1.3072058 -1.1839287 -0.8376408
-0.60113496 -0.49644968 -0.66675854 -0.67457426 -0.45527905 -0.15781698 -0.050748043 -0.053554367
-0.15578702 -0.19307809 -0.1510426 -0.17845212 -0.12902802 -0.1705999 -0.1592618 -0.16475189
-0.13571884 0.016944747 0.17940243 0.11313328 -0.036929194 -0.15557645 -0.23510642 -0.4676697
-0.63860196 -0.7767329 -0.7225789 -0.43953136 -0.4532526 -0.6105211 -0.7223135 -0.90510666
-0.72913957 -0.2350055 0.082111835 0.04073631 -0.08790974 -0.15220375 -0.15907083 -0.15301189
-0.14591528 -0.14475924 -0.17156048 -0.14925629 -0.0754764 0.20390314 0.2426599 0.09644396
-0.1312373 -0.2657619 -0.41573298 -0.49549508 -0.54582334 -0.297099 -0.5343534 -0.2536362
-0.58491015 -0.7796303 -1.2414656 -1.2299438 -1.0654684 -0.39014488 0.23062897 0.254804
0.00049162796 -0.18003805 -0.21858515 -0.16911758 -0.16017908 -0.16056338 -0.17891672 -0.23897676
-0.10351884 -0.057399377 -0.12037083 -0.34049067 -0.6459613 -0.77181286 -0.800741 -0.8555564
-0.90968215 -0.76310766 -1.0104921 -0.9159005 -1.0042077 -1.2558595 -1.5548162 -1.9698522
-1.5072056 -0.70339316 0.044393245 0.13904373 -0.10724488 -0.31148922 -0.2268404 -0.17756876
-0.14135054 -0.18985601 -0.21332546 -0.32674488 -0.32379413 -0.3376724 -0.54223365 -0.7384067
-0.946398 -1.1017646 -0.9810883 -1.0176538 -0.78383285 -1.0962111 -1.5460413 -1.3751321
-1.0852597 -0.94596493 -1.3318858 -1.66644 -1.5412784 -0.8493651 -0.16250202 -0.11930244
-0.3522916 -0.4210463 -0.2524871 -0.16567437 -0.16312201 -0.19130988 -0.22845404 -0.44030222

logits/weights/transpose f4 [784, 32]
00000000: fbc9 dcbd 4170 4fbe 0252 babd e7eb a7bd
00000010: d8a9 b6bc 25ab b1bd 5202 38be e7b5 8abe
00000020: 2b90 47be dfec 44be a24b fcbd 0395 b8be
00000030: a130 97be ff49 2ebe 3561 2ebe 39c2 18be
00000040: 7f70 babe dd96 1dbd ed20 92bd a959 16be
00000050: a09f 96be 8a8a 7fbe 977c 51be 28d4 92be
00000060: d4a8 68be 6a27 cbbd a118 693d 7cdb 6abe
00000070: 34af 03be eabe 6abe 7e6d ad3b 963c 3fbc
00000080: 54a9 54be 8df2 81bd 372f dfbd 9342 20be
00000090: 76ef 8f3b f645 753d 836e 59be 70e3 cebe
000000a0: 223d b3bd 7ecd c9be ded9 713d b089 19bf
000000b0: 2452 8ebe 16cd bdbd e70c 3abd f936 a9bd
000000c0: 98e6 68be 792b 88be b9cc 69bd 27fa 81be
000000d0: c516 45bd e40a a2be 55f7 94be 8c15 35be
000000e0: 9f3c 4abd da89 37be bb86 d93c c0b7 cf3a
000000f0: 4794 84be b3e5 703d 378d a3bd 925d 45bd
00000100: b82e 26be 3281 36bd 771c 6abe 03c0 b7bd
00000110: b313 febd d152 0cbd 0982 85bd eca2 49be
00000120: 0871 83be 5316 a9be 9852 99bc 5e81 0cbf
00000130: 38a3 b6be 2a1b 5abe 8b64 24be 12e9 22be
00000140: fbba 4dbe 91e8 36be 23e6 24be a189 59be
00000150: 08be acbd 12b7 88bd 199f 83be b352 68bd
00000160: e0fe 38bd d43f 8cbd 7d06 8a3d 55ed 69be
00000170: 62ff 80be 7713 1dbc 38c8 a03d f46f 42be
00000180: 506d eabd 6223 ebbd ab4e 22be d22c a4be
00000190: 4de0 283c aaf1 3c3d ce3b b0be 43fe bfbe
000001a0: 2d67 0fbe ae3c 4bbe ed4e d1bd 39e3 fcbe
000001b0: f338 cebd 865b a7bd dcc8 42be 9f85 38bd
000001c0: e673 b2be 6d1e 3abe 068e b7bd 5106 54be
000001d0: 26bc d6bc f35c d8bd af8b 3ebe 98fe d8bd
000001e0: 294d a6bd 4de3 3abe 2f88 6e3d 32cc 0ebd
000001f0: d37f bfbe 231e fdbd 2fd9 3bbe c8a0 ffbb
00000200: e659 793c 4c3a c3bd 9fa0 b1be 057e 0bbe
00000210: 7c2a 40be a14c 2abe 1a4c 26be 590f 86be
00000220: a1e9 48be 5cfb 04be 55e6 90be 10e3 e2be
00000230: 57f4 54be 4c31 55be 75da 12be 2efa 59be
00000240: 5abb 3fbe f8d5 29be 7f8c 44be 70d9 0bbd
00000250: 7649 10be b517 a1be 5c19 f3bd b485 f4bc
00000260: 1424 74be f2da e9bd 6ed7 efbc 5a22 4b3d
00000270: 9fe7 a5be 8aee 1abe 8967 fbbd 27be 12bd
00000280: f43f 21be c5d3 0dbe 1eb7 71be 125c 4abe
00000290: bcbc 5d37 fab0 b33d 8eca f5bd 531b 6fbe
000002a0: d191 27be fa67 94be e57b 35be c167 fdbe
000002b0: b0ea fdbd 0e25 b3be 91da 203d d250 02be
000002c0: fda2 23be ab77 73be 0589 f6bd 8789 58be
000002d0: d278 cebd 7ad4 19be e750 9bbe aa45 55be
000002e0: 82a6 6c3d 3e21 18be 0040 c7bd bd93 11be
000002f0: 80a1 4abe d825 16bd d71f 6abd 0bcf 78bc
00000300: c4c7 2cbe ab6d 08be 448e 5cbe a6ab 8dbe
00000310: 1117 be3c e633 7bbe f1f7 88be 3df8 51be
00000320: ecb6 52be 034b 74be 4b5a 08be 5225 18bf
00000330: 7a72 b3bd cc6a 34be bc89 a53c 5916 afbd
00000340: ec22 00be 67f7 cabd eb27 65be 03d2 80be
00000350: f952 02bd 5a19 1bbe 6b65 b7be e72a 223c
00000360: b621 5cbd f401 323c 525f 84be 39ea ed3c
00000370: 5900 4bbe 1947 5bbe ca5c dcbd 93f9 febd
00000380: 0725 8ebd 3cd3 53bd e252 79be 2626 57be
00000390: 786d f4bc 89e1 1ebd b06d debd c45b 64be
000003a0: baee 77bd 3c2c 6abe 37ee 96be c96e d5be
000003b0: de21 7abe 7447 0cbd 9a00 58bd 0ee9 47be
000003c0: ea04 97be 9876 dbbd dd03 7fbe c3c8 e9bd
000003d0: 5f71 04be 1821 89be 51c8 07be 0957 8fbe
000003e0: 25dd babd d494 233d cccd 303d df0f ccbd
000003f0: d6a3 cbbd 0fe5 96be d138 53be 1ea0 843d
-0.10780712 -0.20257665 -0.09097673 -0.08199292 -0.022297785 -0.08675221 -0.17969635 -0.27091905
-0.1948859 -0.19230984 -0.12319113 -0.36051187 -0.29529288 -0.17020415 -0.17029269 -0.1491784
-0.36413953 -0.038473953 -0.07135186 -0.1468264 -0.2941866 -0.24955192 -0.20457684 -0.28677487
-0.22720653 -0.09919627 0.056908254 -0.22935289 -0.12859803 -0.2292439 0.0052925935 -0.01167216
-0.20767719 -0.06345091 -0.108976774 -0.15650396 0.0043925596 0.059881173 -0.21233563 -0.40407896
-0.087518945 -0.3941459 0.059045665 -0.5997572 -0.27797043 -0.09267633 -0.04542246 -0.08262438
-0.22744215 -0.26595667 -0.057080004 -0.25386164 -0.048117418 -0.31648934 -0.2909495 -0.17684
-0.04937422 -0.1792368 0.026553502 0.0015847608 -0.25894377 0.05881281 -0.07985919 -0.04818494
-0.1622876 -0.044556804 -0.22862421 -0.0897217 -0.12406101 -0.034258667 -0.06518943 -0.19691056
-0.25672174 -0.33024845 -0.018716142 -0.548849 -0.356714 -0.21299425 -0.16053979 -0.15909222
-0.20090859 -0.17862155 -0.16103415 -0.21243908 -0.08434683 -0.06675543 -0.2570732 -0.056719493
-0.045164943 -0.06848112 0.06739519 -0.22844441 -0.25194842 -0.00958716 0.07850689 -0.18988019
-0.11446631 -0.11481358 -0.15850322 -0.32065445 0.010307384 0.046128906 -0.34420627 -0.37498674
-0.14004202 -0.19847366 -0.10220132 -0.49392107 -0.10069456 -0.081717536 -0.19021934 -0.045049306
-0.34854048 -0.18175669 -0.08962636 -0.20705535 -0.026212763 -0.10564604 -0.18607973 -0.10595435
-0.08120186 -0.18250771 0.058235344 -0.034862705 -0.3740221 -0.12359264 -0.18344568 -0.007801149
0.015219187 -0.095326036 -0.34692857 -0.13622291 -0.18766207 -0.16630794 -0.16239968 -0.26183584
-0.19620372 -0.12986511 -0.2830073 -0.4431386 -0.20796333 -0.20819587 -0.14341147 -0.21286842
-0.18723813 -0.16585529 -0.1919422 -0.03414291 -0.14090523 -0.314634 -0.11870071 -0.02984891
-0.23841888 -0.11418714 -0.02927753 0.049593307 -0.32403275 -0.15130058 -0.12275607 -0.035825875
-0.15747052 -0.13850315 -0.2360501 -0.19761685 1.321657e-05 0.0877399 -0.12001525 -0.23350267
-0.16364218 -0.28985578 -0.17723043 -0.4949322 -0.12398279 -0.34989208 0.03927094 -0.12726143
-0.15980144 -0.23776118 -0.12037853 -0.21146213 -0.100816384 -0.1502246 -0.3033516 -0.20827356
0.05777598 -0.14856431 -0.09729004 -0.14216514 -0.1978817 -0.036657184 -0.05715927 -0.015186082
-0.1687308 -0.13323085 -0.21538645 -0.2767002 0.023204358 -0.24531516 -0.26751664 -0.20504852
-0.20577592 -0.2385674 -0.13315694 -0.59431946 -0.08762069 -0.17618865 0.020207278 -0.08549184
-0.12513322 -0.099104695 -0.22378509 -0.25160226 -0.03181741 -0.1514639 -0.35819563 0.009897924
-0.053743087 0.0108647235 -0.25853974 0.02904235 -0.19824351 -0.2141384 -0.107598856 -0.12449946
-0.06940656 -0.05171512 -0.24348024 -0.21010646 -0.029837355 -0.038789306 -0.10860765 -0.22300631
-0.0605304 -0.22868437 -0.29478619 -0.41686085 -0.24426982 -0.03424783 -0.05273495 -0.19522497
-0.29495937 -0.10715979 -0.24903817 -0.114152454 -0.12933873 -0.2678306 -0.13260008 -0.2799609
-0.09124211 0.039936855 0.043165013 -0.09963965 -0.099433586 -0.29471633 -0.20627142 0.064758524
