app/src/main/assets/model-9850.lite (tflite, 541192 bytes, 62 tensors)

Conv2d_0/weights f4 [16, 3, 3, 3]
-0.16745594 -0.058999352 0.1392924 -0.00486184 0.10509545 -0.02533676 0.062544465 0.063004695
0.054853 0.1431545 0.30443802 -0.11598484 -0.11756558 0.16132852 -0.14305137 -0.21726488
-0.06892603 0.0395962 -0.22873473 0.124994434 -0.037680857 0.052072935 0.26269498 -0.011273477
-0.045798015 0.15271227 0.15253358 0.026817003 0.14275523 0.1333904 0.29063928 -0.1330359
-0.028083477 0.08650546 -0.018350903 0.128958 -0.025030334 -0.10362789 0.22242941 0.1314848
-0.18326667 0.055032883 0.11786899 -0.15381515 -0.0074854363 -0.060312055 -0.19481221 -0.15110767
0.04313819 -0.09534537 0.05677407 -0.06776272 -0.15178795 -0.14095616 -0.03410518 0.23166741
0.13545787 0.11040012 0.2891009 0.00094708975 -0.23729758 -0.062050022 0.020338895 0.117956825
0.057406384 0.19634014 0.1586128 0.07476039 -0.030410048 -0.22805227 0.02891532 -0.22642183
-0.22740003 -0.13231951 -0.22839032 0.14886943 -0.13791975 -0.087345764 -0.041183807 0.12711275
-0.08504894 -0.16742422 0.1453444 0.12257889 0.008640409 0.01972278 0.06447828 0.05227574
0.10800626 -0.18955636 -0.17988357 -0.12931173 0.041153077 -0.09503248 0.088291004 -0.050929103
-0.12899715 -0.060229875 -0.03004417 -0.16637182 0.042434417 0.0073122517 -0.28156736 -0.03440873
0.2519159 -0.06387598 0.012248019 0.0994818 -0.20500728 -0.14403474 -0.17144178 0.17896956
0.14170335 -0.038073074 -0.0796556 0.15513074 -0.118437454 -0.038915895 0.08685848 0.06256396
0.032556426 0.2005173 0.12156312 -0.22070843 0.18941188 -0.07606352 0.043722983 0.1082673
-0.1902831 0.059886903 0.2509698 0.15185276 -0.2061061 -0.16515544 0.0036312954 -0.044807673
-0.012533299 -0.1341589 -0.099371634 -0.005057641 0.15031628 0.057471633 -0.30740055 -0.10145744
0.016533192 -0.1697932 0.22873813 -0.090249695 0.037312157 -0.0651324 -0.1477354 -0.27362868
-0.054909192 0.18234551 -0.13552602 0.23431888 0.11091149 0.02625927 0.30157277 0.121514246
-0.27728328 0.10886361 0.045521237 0.042237837 -0.10907603 0.10971824 0.003896822 -0.15763262
0.13758759 -0.20196894 0.025853535 -0.107862875 -0.06619028 -0.11826895 0.116917916 0.25717005
0.12460506 0.34088516 0.24611373 0.17342801 -0.40029648 -0.2446993 -0.1907972 -0.33138096
-0.04276076 0.13114066 0.1490447 0.14247867 -0.081867024 -0.17331722 0.14873794 0.045408495
-0.21999685 0.18196622 0.13599011 -0.06423183 -0.022926254 0.11007109 -0.23757598 0.21810396
-0.02725047 -0.041100085 0.21034737 0.13458057 0.108175606 0.013175048 -0.044378005 -0.15616065
-0.03192423 0.10026217 -0.08342236 0.039575826 -0.16483235 -0.13523683 0.04545248 -0.09605686
-0.103283994 -0.11988659 -0.12202168 0.13614985 0.08500279 -0.14697306 0.024262127 0.100451104
-0.0608071 -0.1338729 0.07914779 0.17850183 -0.2168838 -0.16879773 0.19099812 -0.19669227
-0.0004709164 0.20974997 -0.06017853 -0.11941878 0.02467731 -0.23050329 -0.03861751 0.2236515
-0.041298755 -0.10542745 0.04170377 0.115657374 -0.22748463 -0.03529634 0.080928355 -0.024085853
-0.10720405 -0.030314626 -0.03256445 0.025568364 0.108476594 0.030792033 0.0010692559 -0.20491527
00000000: 9279 2bbe 4ea9 71bd aba2 0e3e 1250 9fbb
00000010: 493c d73d 098f cfbc 5017 803d 9b08 813d
00000020: 8aad 603d 1897 123e 4ddf 9b3e 7689 edbd
00000030: 39c6 f0bd 4e33 253e 0f7c 12be af7a 5ebe
00000040: 1729 8dbd a02f 223d 7039 6abe 15fd ff3d
00000050: 3e57 1abd 6e4a 553d f57f 863e 64b4 38bc
00000060: b396 3bbd 9b60 1c3e c331 1c3e 55af db3c
00000070: 6d2e 123e 7e97 083e acce 943e 903a 08be
00000080: 520f e6bc c629 b13d a254 96bc 910d 043e
00000090: 6a0c cdbc dc3a d4bd 89c4 633e f4a3 063e
000000a0: 42aa 3bbe 296a 613d 4c65 f13d b881 1dbe
000000b0: 6448 f5bb c609 77bd da7c 47be f8bb 1abe
000000c0: acb1 303d 6f44 c3bd ed8b 683d 2ec7 8abd
000000d0: 4d6e 1bbe d056 10be e0b1 0bbd 393a 6d3e
000000e0: 78b5 0a3e 7519 e23d 0805 943e 1e46 783a
000000f0: 23fe 72be 2a28 7ebd c19d a63c 5993 f13d
00000100: f522 6b3d 640d 493e 656b 223e fa1b 993d
00000110: 7e1e f9bc 8986 69be d2df ec3c 20db 67be
00000120: 8edb 68be c47e 07be 27df 69be 3a71 183e
00000130: d63a 0dbe 56e2 b2bd 5ab0 28bd d829 023e
00000140: 232e aebd 4171 2bbe 2ad5 143e a40a fb3d
00000150: 8190 0d3c ab91 a13c 300d 843d 161f 563d
00000160: 6332 dd3d 101b 42be 6633 38be 4b6a 04be
00000170: 2190 283d 64a0 c2bd ead1 b43d 099b 50bd
00000180: d417 04be 9ab3 76bd 311f f6bc 605d 2abe
00000190: b6cf 2d3d 9d9b ef3b 9929 90be 2bf0 0cbd
000001a0: 1ffb 803e 69d1 82bd eaab 483c 1dbd cb3d
000001b0: 6eed 51be d87d 13be 6f8e 2fbe cc43 373e
000001c0: af1a 113e 83f2 1bbd 7a22 a3bd 98da 1e3e
000001d0: 568f f2bd 4666 1fbd dce2 b13d 8921 803d
000001e0: e359 053d 6854 4d3e 16f6 f83d 6401 62be
000001f0: 30f5 413e 31c7 9bbd df16 333d 3fbb dd3d
00000200: 93d9 42be f84b 753d 1d7f 803e 4a7f 1b3e
00000210: 7a0d 53be 821e 29be 07fb 6d3b 4088 37bd
00000220: 7758 4dbc f360 09be 5b83 cbbd 91ba a5bb
00000230: 83ec 193e 6067 6b3d 9b63 9dbe ebc8 cfbd
00000240: 9e70 873c 45de 2dbe 543a 6a3e d5d4 b8bd
00000250: a2d4 183d 2364 85bd f347 17be 0f19 8cbe
00000260: 76e8 60bd c8b8 3a3e 55c7 0abe 4af1 6f3e
00000270: 9025 e33d ae1d d73c bf67 9a3e 76dc f83d
00000280: 13f8 8dbe e2f3 de3d 7a74 3a3d 9501 2d3d
00000290: 4163 dfbd f5b3 e03d d361 7f3b 726a 21be
000002a0: c3e3 0c3e f2d0 4ebe cbca d33c 36e7 dcbd
000002b0: c58e 87bd fe36 f2bd a972 ef3d cbab 833e
000002c0: f030 ff3d 8088 ae3e 3d05 7c3e 1d97 313e
000002d0: a9f3 ccbe 7492 7abe 5760 43be c4aa a9be
000002e0: e825 2fbd bd49 063e 2d9f 183e eee5 113e
000002f0: e6a9 a7bd 127a 31be c24e 183e 42fe 393d
00000300: db46 61be 5a55 3a3e fe40 0b3e fa8b 83bd
00000310: d7cf bbbc f46c e13d 1e47 73be a556 5f3e
00000320: 613c dfbc 9058 28bd 4d65 573e 7dcf 093e
00000330: 2c8b dd3d 28dc 573c b6c5 35bd 94e8 1fbe
00000340: fbc2 02bd 4156 cd3d 58d9 aabd 431a 223d
00000350: d0c9 28be 867b 0abe 612c 3a3d 76b9 c4bd
00000360: 8f86 d3bd 1a87 f5bd 81e6 f9bd de6a 0b3e
00000370: f115 ae3d 1b80 16be 5ec1 c63c 4fb9 cd3d
00000380: de10 79bd fa15 09be 3d18 a23d 2fc9 363e
00000390: c916 5ebe 50d9 2cbe 0395 433e b369 49be
000003a0: 54e5 f6b9 b2c8 563e c37d 76bd d591 f4bd
000003b0: 1228 ca3c 0e09 6cbe 652d 1ebd e604 653e
000003c0: e228 29bd 59ea d7bd 93d1 2a3d c6dd ec3d
000003d0: bbf1 68be e592 10bd c4bd a53d b24f c5bc
000003e0: cc8d dbbd 6156 f8bc 4d62 05bd bf74 d13c
000003f0: fa28 de3d 933f fc3c 4626 8c3a 4fd5 51be

Conv2d_1/weights f4 [16, 3, 3, 16]
0.17629059 0.09229295 0.15626842 -0.079164505 -0.16986574 0.1879071 -0.06965611 0.043505993
-0.07367922 -0.03549207 -0.018602489 -0.07929438 0.011072762 0.0381963 -0.07283067 -0.03511173
0.11154448 -0.12457347 0.13247639 -0.087975904 0.042167243 0.04514989 -0.15444544 0.14780381
-0.00039727025 -0.12449739 -0.13794114 0.019914353 -0.055055514 -0.03871701 0.21208215 -0.004705734
0.16522828 -0.055823654 -0.053847738 0.06485357 0.10987027 0.13845102 0.18482979 -0.05460258
0.045313817 0.15283805 0.025551064 0.22477187 0.16351931 0.08257816 0.017117077 0.08541323
0.06071429 0.091700315 0.06641004 0.118062325 -0.040473692 -0.041163195 0.11233893 -0.11767755
-0.0077480194 -0.063837565 0.059672125 -0.08800108 -0.09163424 0.09003614 0.16333184 0.11532613
0.18021582 0.13686238 0.10012922 0.0072138505 0.09735304 0.09515556 -0.2611142 0.103909545
0.05240335 0.028015226 -0.09302715 -0.046804123 0.053485166 -0.02302078 0.14017029 -0.10384101
0.10626477 -0.21475941 0.105157435 -0.115222394 -0.11934762 -0.1792981 0.2611593 -0.09884556
0.16282879 0.017557705 0.021204636 0.120540954 0.11182886 0.028239928 0.15411629 -0.015231735
-0.0021634744 0.027276026 -0.079712205 -0.009067018 -0.02090947 0.13266781 0.15830596 -0.15417404
-0.015080514 0.048838664 -0.13343155 0.04513108 -0.110083975 0.06461982 0.06528643 0.08867384
0.085808195 0.112988874 0.06613293 -0.06338043 0.10970793 -0.06545236 -0.10498822 0.043346886
-0.0042196726 -0.06202693 -0.024225382 0.3801278 -0.1345175 -0.16501121 0.09510549 0.057218634
-0.051822126 -0.1530394 0.07695016 0.122498214 0.057958752 -0.17080233 0.21312813 -0.032948423
-0.08401155 0.001355193 0.16931865 -0.15140752 0.112888984 0.0905274 0.06150218 0.15888691
-0.0020108728 -0.112907045 0.027553132 -0.058122378 -0.034835976 0.23499501 -0.10632956 0.09515019
-0.16049293 0.18688238 0.049756393 -0.071238756 -0.04172335 0.17508446 0.197901 -0.13583925
0.20911096 -0.099578194 -0.04635611 -0.021123491 0.19422455 0.21708488 -0.19955498 -0.0016451577
0.002427884 -0.041358545 0.08645591 -0.07112763 -0.021079406 -0.08433481 0.03723006 0.11631222
0.11470697 -0.090780206 -0.073961005 0.01423443 0.10956358 0.018870275 -0.10874616 -0.14761586
-0.021240443 -0.098343655 0.02308406 -0.012658801 -0.048240516 -0.0049251174 0.1413397 0.12197975
0.06604214 0.03211688 -0.011323063 -0.23729265 0.031938117 0.110485576 0.056650467 0.07794471
-0.12820229 -0.008487335 -0.067644276 -0.1535731 0.1515225 0.2104074 0.1979078 0.19036183
0.2600583 -0.0723361 0.14907987 0.014552424 0.05815885 0.051849477 -0.0153503055 -0.01965264
0.018453473 -0.028213399 -0.07185359 0.016129537 0.013570088 0.094349 0.11088657 -0.09609238
0.047600128 -0.00023598279 0.038682416 -0.21824776 0.354131 0.30391166 -0.09310771 -0.12176562
-0.18009135 -0.07673902 0.13892055 0.11320702 0.078937754 -0.027900899 -0.021946352 0.03605365
0.2150292 0.104164526 0.15378724 -0.20236494 0.16794032 -0.09530319 -0.10837578 0.03638945
-0.2216318 0.16063742 0.092234395 0.024083218 0.05970068 -0.06019509 0.16135933 0.11185009
00000000: 8585 343e 1604 bd3d d404 203e 0021 a2bd
00000010: 49f1 2dbe b86a 403e dda7 8ebd 5733 323d
00000020: 22e5 96bd 2260 11bd 3f64 98bc 1865 a2bd
00000030: 886a 353c b973 1c3d 3f28 95bd 51d1 0fbd
00000040: 6f71 e43d 6020 ffbd e4a7 073e b62c b4bd
00000050: 8fb7 2c3d 17ef 383d f226 1ebe e259 173e
00000060: b648 d0b9 7df8 febd 7140 0dbe 6d23 a33c
00000070: e481 61bd ba95 1ebd 102c 593e 8f32 9abb
00000080: 9a31 293e 58a7 64bd 728f 5cbd f3d1 843d
00000090: aa03 e13d 1bc6 0d3e 0544 3d3e f4a6 5fbd
000000a0: fb9a 393d 9481 1c3e 7750 d13c 992a 663e
000000b0: 9b71 273e bd1e a93d 1d39 8c3c 22ed ae3d
000000c0: 8caf 783d 60cd bb3d fd01 883d a9ca f13d
000000d0: bec7 25bd bd9a 28bd f411 e63d ed00 f1bd
000000e0: 19e3 fdbb 45bd 82bd c26a 743d e939 b4bd
000000f0: bbaa bbbd de64 b83d 7640 273e 1b30 ec3d
00000100: 7f8a 383e a725 0c3e 8c10 cd3d 2a62 ec3b
00000110: 0861 c73d ebe0 c23d c3b0 85be 87ce d43d
00000120: e5a4 563d 3080 e53c 0585 bebd aeb5 3fbd
00000130: 4313 5b3d 1396 bcbc cd88 0f3e 98aa d4bd
00000140: 58a1 d93d e4e9 5bbe c85c d73d b8f9 ebbd
00000150: 866c f4bd ec99 37be acb6 853e 8a6f cabd
00000160: 97bc 263e 2dd5 8f3c 58b5 ad3c 2dde f63d
00000170: 8806 e53d 6c57 e73c a9d0 1d3e 878e 79bc
00000180: 14c9 0dbb f971 df3c 2740 a3bd d48d 14bc
00000190: 564a abbc 12da 073e f51a 223e cddf 1dbe
000001a0: 4314 77bc 0d0b 483d 48a2 08be 5edb 383d
000001b0: b573 e1bd 6557 843d e4b4 853d a19a b53d
000001c0: 35bc af3d b666 e73d b470 873d 99cd 81bd
000001d0: 8dae e03d e30b 86bd 1004 d7bd 818c 313d
000001e0: 2e45 8abb f30f 7ebd 4f74 c6bc 1ca0 c23e
000001f0: f5be 09be b3f8 28be abc6 c23d 165e 6a3d
00000200: 7043 54bd 5cb6 1cbe 0c98 9d3d 58e0 fa3d
00000210: 2866 6d3d cee6 2ebe 433e 5a3e edf4 06bd
00000220: 3f0e acbd bba0 b13a de61 2d3e 930a 1bbe
00000230: 5732 e73d 6e66 b93d b6e9 7b3d 40b3 223e
00000240: d9c8 03bb cf3b e7bd 1bb7 e13c bb11 6ebd
00000250: 2bb0 0ebd 88a2 703e 50c3 d9bd 1ade c23d
00000260: 4258 24be 185e 3f3e 5ccd 4b3d a0e5 91bd
00000270: 1ae6 2abd 5749 333e 8fa6 4a3e 7219 0bbe
00000280: 2f21 563e a7ef cbbd e8df 3dbd 2c0b adbc
00000290: cde2 463e 804b 5e3e 2458 4cbe 55a2 d7ba
000002a0: 221d 1f3b 9467 29bd cc0f b13d 5dab 91bd
000002b0: b8ae acbc bbb7 acbd 8c7e 183d 1a35 ee3d
000002c0: 7deb ea3d f9ea b9bd de78 97bd 8737 693c
000002d0: df62 e03d d695 9a3c 4fb6 debd 9d28 17be
000002e0: 7000 aebc 6668 c9bd c81a bd3c dc66 4fbc
000002f0: d997 45bd e162 a1bb 5bbb 103e 85d0 f93d
00000300: 1a41 873d fd8c 033d 5e84 39bc d8fc 72be
00000310: 8bd1 023d 4346 e23d 520a 683d 7aa1 9f3d
00000320: 7647 03be 770e 0bbc 1589 8abd 4442 1dbe
00000330: b728 1b3e 0a75 573e 58a8 4a3e 36ee 423e
00000340: 5d26 853e f324 94bd 65a8 183e 4a6d 6e3c
00000350: f937 6e3d 1e60 543d d97f 7bbc 93fe a0bc
00000360: bd2b 973c c91f e7bc fa27 93bd 1722 843c
00000370: 1355 5e3c 0c3a c13d 7f18 e33d 15cc c4bd
00000380: 5af8 423d 2672 77b9 7471 1e3d 577c 5fbe
00000390: a950 b53e 4f9a 9b3e 41af bebd 4160 f9bd
000003a0: de69 38be 5929 9dbd 3041 0e3e 15d9 e73d
000003b0: 1eaa a13d 6d90 e4bc d6c8 b3bc feac 133d
000003c0: 9d30 5c3e 3654 d53d 677a 1d3e c138 4fbe
000003d0: 8cf8 2b3e 522e c3bd 1ff4 ddbd 1b0d 153d
000003e0: 72f3 62be 237e 243e 63e5 bc3d 2b4a c53c
000003f0: b388 743d 208f 76bd 613b 253e a911 e53d

Conv2d_2/weights f4 [16, 3, 3, 16]
-0.0026913635 -0.02435828 -0.17816918 0.12749699 0.1998609 -0.20179506 0.29100153 0.15484972
-0.27381074 -0.12009812 -0.16079968 0.006267956 -0.06609256 0.06590332 0.015845412 0.11757354
-0.09938166 -0.050564256 -0.15614767 -0.15165745 0.18509004 -0.35596365 -0.058551393 -0.14315982
-0.059918176 0.049411215 -0.00496652 -0.12317533 -0.14412819 -0.0055299904 0.017756615 -0.016360486
0.013091939 0.012072892 -0.05476591 -0.22539741 0.0069506094 -0.42847142 -0.05884537 -0.23717268
-0.075510345 -0.10759881 -0.037018616 -0.012466677 -0.14544208 -0.042900663 0.051744062 -0.0019928478
-0.029194856 0.06065475 -0.06235069 -0.19924946 -0.013519833 -0.31861576 0.10541498 0.032092065
-0.071948566 -0.08170048 0.035594 -0.039669197 0.19734806 0.060561743 0.12743025 -0.122705996
0.12752491 0.049515113 -0.023680326 -0.12207654 0.16737829 -0.3190761 0.023624001 -0.11581067
-0.05899904 -0.02848865 -0.040968914 -0.24823533 -0.10246807 -0.083091915 0.042613696 0.11935101
0.07110077 0.092145555 0.09256349 -0.13061367 0.07965683 -0.30373925 -0.019931108 -0.33157563
-0.13067448 -0.023366265 0.007365823 -0.13582376 0.039054465 0.18659812 -0.03124131 0.008259582
-0.14654107 0.08711218 0.021806767 -0.1105863 0.13330173 -0.32670653 0.09662567 -0.26904768
0.30372405 -0.06622376 0.21575832 -0.193002 0.054981034 -0.107185714 0.19368343 -0.09871204
-0.010349134 0.13444878 0.024725461 -0.11058095 0.065672874 -0.29220715 -0.20649393 -0.1796509
0.13727906 -0.017604072 0.014049851 0.17672668 -0.080764204 -0.11485293 0.20209387 -0.11100115
0.1860114 0.17599101 0.13284369 0.088658914 -0.12099764 -0.015415816 -0.050598964 -0.23317547
0.18138997 -0.060005087 0.049770065 0.1382117 0.020881908 0.09070351 0.048583448 -0.043649826
0.07670894 -0.1097479 0.27100778 0.045679603 0.07560125 0.09329051 -0.28130332 -0.17740165
-0.074200116 -0.04578711 -0.10872086 -0.011186609 -0.03887041 0.05845696 -0.18884347 -0.1635151
-0.11545346 0.027479706 0.24793361 -0.002743097 0.006480946 0.031528644 -0.2376453 0.028778853
0.041258983 -0.0074935085 0.10186024 0.06462111 0.022903271 -0.030801894 0.0043130047 -0.062897384
0.07892271 0.0006494876 -0.0067554396 -0.047249157 -0.08893537 0.07993391 -0.26835132 0.11381243
-0.07816162 0.027617564 0.08621237 0.07917009 0.07789556 -0.17859152 -0.123086736 -0.09931832
-0.0798317 -0.008401277 0.08422604 0.020818572 -0.15340711 -0.19319904 -0.19451265 0.022326022
-0.0039359033 -0.15642114 -0.043141916 0.15432 0.12565897 -0.019207906 0.077961735 -0.16917929
-0.007029814 -0.12962551 0.06927385 -0.11024595 0.07061228 -0.12683451 -0.17347439 0.0018486878
0.13363148 0.12257675 0.18676206 0.1430173 0.0013980475 0.07671516 0.18434687 0.07846481
-0.23368782 0.020400295 -0.07933719 -0.14570865 -0.048547916 0.03701887 -0.17552972 -0.041910052
-0.054911423 0.042756446 0.09039832 -0.11879979 -0.0654208 -0.1130941 0.14198476 -0.10872388
-0.116527244 0.16173239 0.12105317 -0.20766032 -0.014307805 -0.11050881 -0.030885385 -0.15606421
0.08505415 -0.19433625 0.1718303 -0.21324924 -0.036167845 -0.09238484 -0.13129488 -0.24166447
00000000: 9661 30bb 048b c7bc fb71 36be 928e 023e
00000010: 56a8 4c3e 5da3 4ebe 27fe 943e ed90 1e3e
00000020: ec30 8cbe 01f6 f5bd aca8 24be 6d63 cd3b
00000030: 895b 87bd 52f8 863d 3dce 813c 65ca f03d
00000040: 9d88 cbbd 771c 4fbd 2de5 1fbe 174c 1bbe
00000050: 3e88 3d3e de40 b6be 96d3 6fbd 7d98 12be
00000060: c36c 75bd 6a63 4a3d 30be a2bb 5943 fcbd
00000070: 5796 13be ec34 b5bb 5276 913c 6d06 86bc
00000080: 927f 563c 61cd 453c 3852 60bd 94ce 66be
00000090: f0c1 e33b 9b60 dbbe d807 71bd 65dd 72be
000000a0: 2ba5 9abd c45c dcbd d5a0 17bd 0941 4cbc
000000b0: c5ee 14be 9bb8 2fbd 95f1 533d 709a 02bb
000000c0: 0d2a efbc 1d71 783d 7063 7fbd 0d08 4cbe
000000d0: 4a82 5dbc 9b21 a3be cfe3 d73d f872 033d
000000e0: c559 93bd 9552 a7bd 04cb 113d 2b7c 22bd
000000f0: 9c15 4a3e 970f 783d 137d 023e 484d fbbd
00000100: e495 023e 5cd0 4a3d 3efd c1bc 4403 fabd
00000110: 3765 2b3e f15d a3be 1f87 c13c 252e edbd
00000120: faa8 71bd 0861 e9bc 05cf 27bd 6731 7ebe
00000130: c8da d1bd 182c aabd b38b 2e3d 4d6e f43d
00000140: 489d 913d cfb6 bc3d ed91 bd3d 97bf 05be
00000150: 1f23 a33d b683 9bbe 9046 a3bc 48c4 a9be
00000160: 88cf 05be 9c6a bfbc 005d f13b 6215 0bbe
00000170: 93f7 1f3d 9413 3f3e c7ed ffbc 3353 073c
00000180: dd0e 16be df67 b23d 1ba4 b23c 127b e2bd
00000190: 4080 083e 1446 a7be aee3 c53d 9ec0 89be
000001a0: b881 9b3e 53a0 87bd c0ef 5c3e 51a2 45be
000001b0: cb33 613d 2f84 dbbd f354 463e 8a29 cabd
000001c0: 6a8f 29bc f1ac 093e 0d8d ca3c 4478 e2bd
000001d0: 807f 863d 2d9c 95be 2573 53be 68f6 37be
000001e0: e292 0c3e 6a36 90bc 5931 663c d7f7 343e
000001f0: b467 a5bd 0338 ebbd b2f1 4e3e 9254 e3bd
00000200: c679 3e3e fd36 343e 2d08 083e ce92 b53d
00000210: 9ccd f7bd 9e92 7cbc dc40 4fbd 8dc5 6ebe
00000220: 4bbe 393e e5c7 75bd b2db 4b3d 5e87 0d3e
00000230: 8910 ab3c c3c2 b93d 70ff 463d 29ca 32bd
00000240: 9419 9d3d 82c3 e0bd 88c1 8a3e 891a 3b3d
00000250: d4d4 9a3d 180f bf3d fd06 90be c7a8 35be
00000260: 3bf6 97bd 448b 3bbd 0ba9 debd 0a48 37bc
00000270: 9436 1fbd 9170 6f3d 2f60 41be 8170 27be
00000280: dd72 ecbd 1f1d e13c 4fe2 7d3e 88c5 33bb
00000290: 1e5e d43b 2e24 013d 4a59 73be a1c1 eb3c
000002a0: 2eff 283d 1b8c f5bb 1a9c d03d 1358 843d
000002b0: a49f bb3c 4154 fcbc 1b54 8d3b 58d0 80bd
000002c0: 3ba2 a13d 6042 2a3a bc5c ddbb 5588 41bd
000002d0: bf23 b6bd 64b4 a33d 5865 89be 7e16 e93d
000002e0: 3313 a0bd 3b3e e23c 1c90 b03d ee23 a23d
000002f0: b587 9f3d b2e0 36be e614 fcbd 6767 cbbd
00000300: cd7e a3bd 82a5 09bc b47e ac3d b68b aa3c
00000310: c116 1dbe f8d5 45be 532e 47be 10e5 b63c
00000320: c0f8 80bb dd2c 20be 94b5 30bd 1006 1e3e
00000330: bfac 003e e659 9dbc 67aa 9f3d 563d 2dbe
00000340: 5b5a e6bb 8dbc 04be 73df 8d3d a1c8 e1bd
00000350: 2c9d 903d e8e0 01be 45a3 31be ab4f f23a
00000360: b1d6 083e 8509 fb3d 8e3e 3f3e 2173 123e
00000370: b13e b73a d61c 9d3d 6dc5 3c3e 29b2 a03d
00000380: dc4b 6fbe 851e a73c 897b a2bd a634 15be
00000390: 2eda 46bd 19a1 173d 10be 33be e0a9 2bbd
000003a0: cdea 60bd 6221 2f3d c122 b93d 4e4d f3bd
000003b0: 57fb 85bd e19d e7bd 7464 113e a0aa debd
000003c0: d6a5 eebd 2d9d 253e b9ea f73d e8a4 54be
000003d0: 496b 6abc 7152 e2bd 5903 fdbc 4ccf 1fbe
000003e0: df30 ae3d 1500 47be 48f4 2f3e 025e 5abe
000003f0: bc24 14bd 4334 bdbd 2a72 06be e476 77be

Conv2d_3/weights f4 [24, 3, 3, 16]
-0.16520351 0.041357085 0.06858144 0.058642928 -0.03353492 0.052461356 0.1830523 0.015047198
0.021439856 0.17193218 0.037258804 0.11318035 -0.48366684 -0.30053958 0.0005223282 0.13026412
0.208532 0.12995411 0.17971806 0.12150557 -0.096566 0.18310682 0.01638265 0.34319967
-0.17163587 0.1836917 0.15184633 0.17479372 -0.10565658 -0.13115713 0.15615493 0.07389419
0.27755213 0.016043697 -0.006224539 -0.023535432 -0.1443185 0.10454128 0.11511222 0.2655942
-0.047562566 0.03943529 -0.029407872 0.3074051 0.05192831 -0.22693963 0.10383222 -0.025418606
0.17451914 -0.17070006 -0.22400218 -0.0374918 -0.10364416 0.10931824 -0.082813986 -0.00076064933
0.05996138 -0.1851204 0.12040073 0.031453785 -0.19370386 -0.13362914 0.038971253 0.08271645
0.15112762 0.03732143 -0.1478757 0.061899308 0.011562 0.14001542 0.023464222 -0.007620081
-0.09777923 -0.15222177 -0.018393202 -0.05187428 0.16779321 -0.06697319 0.22248504 0.052690793
0.08920917 -0.123339914 -0.00039855312 -0.036664452 -0.0793434 0.26326305 -0.11820676 0.0068751937
0.06491717 0.04452404 -0.10045978 0.035989363 0.19448759 -0.10144231 0.05709462 0.05569796
0.32335123 0.10744475 -0.18043686 0.1936328 -0.03227119 0.001439646 -0.13329141 -0.12668097
-0.1446686 -0.14716616 -0.02049964 0.2138501 0.14622332 -0.046445064 0.122699834 -0.02250755
0.19698626 -0.09886604 -0.19841214 0.02254265 -0.06218293 0.058995523 0.03293644 -0.09764033
-0.10306086 -0.1790141 -0.052027263 0.12504618 0.46209705 0.00055483554 0.21894544 -0.0954735
0.27308208 0.08631194 -0.08719232 -0.17675823 -0.07375532 0.03456132 -0.08972098 -0.1444572
0.15493314 0.10529206 0.018825164 -0.072264686 0.21559094 0.18948089 0.0029365288 -0.06363142
-0.05841307 -0.047849096 -0.06779628 -0.1205636 0.009263489 0.0569801 -0.056810986 0.23046649
-0.09060207 -0.10502844 -0.1395194 0.09754159 0.0625181 -0.056569837 0.112191476 0.07503901
-0.116305806 0.09832055 0.14288227 0.10571578 -0.14335108 0.18254855 0.032506593 0.22779678
-0.026014531 0.11485415 0.031257074 0.0734123 -0.18743743 -0.1939991 0.013733064 -0.031752713
-0.1407396 0.18054162 0.0023796454 -0.02954051 0.17004426 -0.0016150882 -0.10152671 -0.009268017
-0.23135859 0.07894932 -0.035388913 0.15560213 0.054035045 -0.09493649 0.18533589 -0.043057602
0.16530947 0.0028645205 -0.056075383 0.029279782 0.043086663 0.14384544 -0.1057913 -0.025894035
-0.09478439 -0.017093424 -0.054852325 0.17811653 -0.12910266 0.1895292 0.11174544 -0.073983334
0.047107793 -0.12609129 0.15096755 0.048213888 -0.16545379 0.18301181 0.04094646 0.16273096
-0.081333905 -0.15214814 -0.12633665 0.06264471 -0.06403728 -0.015589353 0.032231845 0.02100512
0.04444004 0.008526142 0.014926406 0.03638769 0.08048355 -0.0091984095 0.0052595553 0.08718234
-0.106680855 0.14462937 0.03173356 0.122622 -0.16928862 -0.122395284 0.11717152 0.039481785
0.25442258 0.06628733 -0.16413163 -0.12693903 -0.056858905 0.048053756 0.14230402 0.040882703
-0.10471168 -0.060884655 -0.10617648 0.16694987 -0.040575188 0.35792384 0.061661646 0.14239462
00000000: 1c2b 29be 0c66 293d 6d74 8c3d 9133 703d
00000010: ea5b 09bd b8e1 563d 1072 3b3e 8688 763c
00000020: a3a2 af3c fd0e 303e b09c 183d 19cb e73d
00000030: 2ea3 f7be 53e0 99be daec 083a f563 053e
00000040: 6a89 553e b112 053e 0308 383e ead7 f83d
00000050: 65c4 c5bd 5b80 3b3e e834 863c deb7 af3e
00000060: 50c1 2fbe ad19 3c3e 9b7d 1b3e 20fd 323e
00000070: 7a62 d8bd 0e4e 06be 14e7 1f3e d655 973d
00000080: 501b 8e3e 126e 833c 38f7 cbbb 61cd c0bc
00000090: 3bc8 13be bd19 d63d f5bf eb3d f7fb 873e
000000a0: f7d0 42bd e686 213d c7e8 f0bc 3464 9d3e
000000b0: c8b2 543d dd62 68be fda5 d43d ae3a d0bc
000000c0: 25b5 323e ffcb 2ebe d460 65be 0091 19bd
000000d0: 6443 d4bd 3ee2 df3d 619a a9bd 5066 47ba
000000e0: 109a 753d 3490 3dbe a894 f63d afd5 003d
000000f0: 4e5a 46be 14d6 08be 52a0 1f3d 3e67 a93d
00000100: 33c1 1a3e 5bde 183d ba6c 17be 218a 7d3d
00000110: 8b6e 3d3c 3460 0f3e 0a38 c03c dfb1 f9bb
00000120: 7a40 c8bd 06e0 1bbe 57ad 96bc 207a 54bd
00000130: fcd1 2b3e 3d29 89bd 1ed3 633e 4dd2 573d
00000140: 4cb3 b63d a399 fcbd e5f4 d0b9 772d 16bd
00000150: cb7e a2bd 6aca 863e 6316 f2bd 4e49 e13b
00000160: 4bf3 843d d75e 363d dbbd cdbd 9569 133d
00000170: c127 473e fcc0 cfbd 0cdc 693d 8b23 643d
00000180: 4b8e a53e fe0b dc3d 71c4 38be ad47 463e
00000190: cc2e 04bd 81b2 bc3a 8b7d 08be a8b8 01be
000001a0: 0124 14be bab2 16be dcee a7bc 85fb 5a3e
000001b0: 91bb 153e 2e3d 3ebd 0d4a fb3d c161 b8bc
000001c0: c4b6 493e 477a cabd 8d2c 4bbe 5dab b83c
000001d0: 87b3 7ebd 4aa5 713d 5ce8 063d a7f7 c7bd
000001e0: 9211 d3bd 794f 37be 8a1a 55bd 1b0c 003e
000001f0: fc97 ec3e 6272 113a 3c33 603e 9c87 c3bd
00000200: 6ad1 8b3e 50c4 b03d e391 b2bd 1c00 35be
00000210: 070d 97bd 2c90 0d3d a2bf b7bd 97ec 13be
00000220: cba6 1e3e 5da3 d73d 3b37 9a3c 82ff 93bd
00000230: dfc3 5c3e 4707 423e c772 403b 3151 82bd
00000240: 8b42 6fbd 6afd 43bd c7d8 8abd 0cea f6bd
00000250: e4c5 173c f763 693d a3b2 68bd 68ff 6b3e
00000260: 948d b9bd 2719 d7bd 2cde 0ebe e3c3 c73d
00000270: 7d09 803d c6b5 67bd a5c4 e53d 0dae 993d
00000280: bd31 eebd 495c c93d bb4f 123e 8481 d83d
00000290: a0ca 12be 02ee 3a3e a225 053d 8f43 693e
000002a0: 6d1c d5bc a738 eb3d 6b07 003d 3059 963d
000002b0: 99ef 3fbe b3a7 46be a500 613c 220f 02bd
000002c0: 0b1e 10be e7df 383e d3f3 1b3b f1fe f1bc
000002d0: 1520 2e3e 5eb1 d3ba 3ced cfbd e1d8 17bc
000002e0: 44e9 6cbe 2eb0 a13d f7f3 10bd 2a56 1f3e
000002f0: da53 5d3d 106e c2bd b1c8 3d3e 2b5d 30bd
00000300: e346 293e aeba 3b3b 4daf 65bd 27dc ef3c
00000310: a47b 303d 384c 133e 1ca9 d8bd ba1f d4bc
00000320: 511e c2bd 8207 8cbc d5ac 60bd 2e64 363e
00000330: 7d33 04be f113 423e cbda e43d 9384 97bd
00000340: 1af4 403d 131e 01be 3d97 1a3e ed7b 453d
00000350: b86c 29be 7367 3b3e 7ab7 273d f2a2 263e
00000360: 6492 a6bd b9cc 1bbe 655e 01be df4b 803d
00000370: fa25 83bd 7c6a 7fbc 8a05 043d ee12 ac3c
00000380: c206 363d 3bb1 0b3c e28d 743c 420b 153d
00000390: 8fd4 a43d edb4 16bc 5958 ac3b a88c b23d
000003a0: 7e7b dabd b919 143e 0dfb 013d 3e21 fb3d
000003b0: ff59 2dbe 61aa fabd 9ff7 ef3d a7b7 213d
000003c0: ad43 823e a7c1 873d 1f12 28be 4efc 01be
000003d0: e2e4 68bd 04d4 443d 25b8 113e 9f74 273d
000003e0: 1473 d6bd 3062 79bd 0e73 d9bd e8f4 2a3e
000003f0: 2b32 26bd cb41 b73e ec90 7c3d e5cf 113e

Conv2d_4/weights f4 [24, 3, 3, 24]
0.042717893 0.18873087 -0.006406071 0.010999334 0.027277507 0.012772167 -0.07438546 0.0525173
0.058914397 0.10373609 0.04636837 0.14208204 0.040273122 0.016254963 -0.06822008 0.019027151
0.024004444 -0.07499339 0.08864881 -0.03377944 0.047004882 -0.08818804 -0.28638217 -0.10037618
0.034943543 0.014487298 0.17803614 -0.046225447 -0.03554751 -0.103025794 -0.026862163 -0.029161766
-0.10748892 -0.09159739 0.19563805 0.12227944 0.0037791918 -0.037316844 0.15944256 0.0016547325
0.121905856 0.08600581 -0.1233092 -0.08333522 0.12343716 -0.0064965687 -0.046980258 0.0031370872
0.022827115 -0.016310312 -0.20002122 0.06768117 0.13240331 -0.079932444 0.053212862 -0.07216909
-0.08029297 0.16993777 -0.019345466 -0.015668254 -0.107981175 -0.04528745 0.04939657 -0.07802909
0.09614703 0.093185805 -0.19115943 -0.0184329 -0.036012474 0.1014058 -0.1683676 -0.019742459
0.17054915 0.061441656 -0.23554237 -0.10179772 -0.1509073 -0.20498301 -0.06905489 0.028144587
-0.05322071 0.056010574 0.060203604 0.14259025 0.15201794 -0.12932782 0.009993304 0.019363543
-0.14443253 -0.013801418 0.10519006 -0.054747738 -0.04681198 -0.10531075 -0.0628002 -0.1464519
-0.075417034 0.17989157 -0.12383923 0.007714387 0.007835415 -0.129657 0.04202088 -0.03280492
-0.13801128 0.09613884 0.0746002 0.1576619 -0.061455376 0.07208069 -0.0053602024 0.052576035
0.082447045 -0.08525124 -0.037758466 0.08792412 -0.023452425 -0.024254153 -0.028135797 0.18634735
-0.01877959 -0.14694545 0.09561901 0.068400905 0.22009607 -0.04143019 0.08159444 -0.022455549
-0.047426816 0.101033464 -0.118083574 -0.052283715 -0.11623434 0.05259513 0.08940152 0.06854646
0.07071419 0.19213612 -0.06596559 -0.029443372 -0.035378717 0.21035135 -0.05248604 0.004371671
-0.029110244 0.0366544 0.22599925 -0.006541769 -0.10253608 -0.04435764 -0.010446606 0.009122552
-0.11950258 -0.2078785 0.20962052 0.17554866 0.12520295 0.12586336 0.074163556 -0.0797366
0.0671107 -0.037806712 0.09040716 -0.1491526 0.111069 -0.038799025 -0.03219228 0.01093615
-0.07211622 -0.049181763 0.01429757 0.09115443 0.036652103 -0.16821398 0.15715575 0.02008486
-0.044399355 -0.023675863 0.01189258 -0.015124413 0.004682338 -0.014124958 -0.030357074 -0.00588331
0.12975596 0.18773969 -0.02686806 -0.042919345 0.013890364 -0.06316469 0.09774822 0.15481402
-0.13160625 -0.071956284 -0.13615057 0.078193314 0.11812005 0.061433654 0.18064931 0.007898596
-0.16053297 0.16712093 -0.10224385 -0.045226045 0.11108648 -0.028487183 0.16765232 -0.01934769
0.049297016 0.10846994 -0.061774325 0.06269795 -0.11720166 0.12727651 -0.14968842 -0.00037609047
-0.11149407 0.0675203 -0.120976694 0.042117327 -0.037003744 0.020077553 0.04827611 0.0734784
0.06755991 -0.06740128 -0.14025868 0.079735406 0.060622048 0.010149449 0.053843454 0.0070471535
-0.15549769 -0.08998441 0.07651026 -0.058514144 -0.21713538 -0.011612688 0.0476039 0.10723517
-0.009464147 0.0107401265 -0.2669974 0.025093433 0.07206681 0.109851636 0.04107415 0.086194456
-0.115066364 0.10443081 -0.020648265 0.08197258 -0.054244295 -0.095374115 -0.052878767 -0.09879448
00000000: f5f8 2e3d aa42 413e 05ea d1bb 8d36 343c
00000010: 1475 df3c 5a42 513c 6757 98bd 611c 573d
00000020: 3950 713d 9673 d43d c3ec 3d3d f47d 113e
00000030: 6ef5 243d 2129 853c f8b6 8bbd d4de 9b3c
00000040: f8a4 c43c 2296 99bd 828d b53d 4f5c 0abd
00000050: 3188 403d ee9b b4bd afa0 92be 0792 cdbd
00000060: f620 0f3d 225c 6d3c 1b4f 363e e556 3dbd
00000070: 449a 11bd 30ff d2bd 0a0e dcbc a8e4 eebc
00000080: 2723 dcbd 6a97 bbbd 5755 483e a56d fa3d
00000090: 51ac 773b 8cd9 18bd e944 233e 9ce3 d83a
000000a0: c7a9 f93d d023 b03d 8989 fcbd a8ab aabd
000000b0: 9fcc fc3d 2be1 d4bb 5f6e 40bd 9797 4d3b
000000c0: eeff ba3c 349d 85bc 5dd2 4cbe 6d9c 8a3d
000000d0: bc94 073e 9fb3 a3bd bbf5 593d 63cd 93bd
000000e0: a470 a4bd 2b04 2e3e 627a 9ebc b65a 80bc
000000f0: 3c25 ddbd 557f 39bd 0f54 4a3d b7cd 9fbd
00000100: bce8 c43d 33d8 be3d 4cbf 43be 9800 97bc
00000110: d181 13bd d8ad cf3d 8e68 2cbe f0ba a1bc
00000120: 70a4 2e3e 3faa 7b3d 0532 71be 537b d0bd
00000130: 7187 1abe 11e7 51be a66c 8dbd 7a8f e63c
00000140: f6fd 59bd 586b 653d 0e98 763d 2e03 123e
00000150: 97aa 1b3e 836e 04be f4ba 233c 4ba0 9e3c
00000160: 1fe6 13be 581f 62bc e36d d73d 2a3f 60bd
00000170: ebbd 3fbd 2aad d7bd 649d 80bd 7df7 15be
00000180: 3f74 9abd 7f35 383e 6c9f fdbd f8c8 fc3b
00000190: 1d60 003c cec4 04be 161e 2c3d 745e 06bd
000001a0: d452 0dbe 71e4 c43d fdc7 983d 1f72 213e
000001b0: a2b8 7bbd 0a9f 933d a3a4 afbb f859 573d
000001c0: ffd9 a83d 3498 aebd 9fa8 1abd 9011 b43d
000001d0: 4d1f c0bc a5b0 c6bc 0b7d e6bc d7d1 3e3e
000001e0: a8d7 99bc de78 16be e6d3 c33d c615 8c3d
000001f0: dd60 613e b4b2 29bd fc1a a73d b3f4 b7bc
00000200: 9f42 42bd a2ea ce3d cdd5 f1bd 7327 56bd
00000210: 450c eebd fe6d 573d 2518 b73d 1662 8c3d
00000220: 9ad2 903d 55bf 443e f818 87bd 3a33 f1bc
00000230: 46e9 10bd 5866 573e 9afb 56bd 3c40 8f3b
00000240: 9b78 eebc ed22 163d 596c 673e 565c d6bb
00000250: 70fe d1bd 5bb0 35bd 3e28 2bbc c276 153c
00000260: c5bd f4bd 1ade 54be c3a6 563e 07c3 333e
00000270: 3435 003e 53e2 003e 10e3 973d f14c a3bd
00000280: 5671 893d 36db 1abd 6427 b93d 76bb 18be
00000290: 2578 e33d baeb 1ebd 0ddc 03bd 8a2d 333c
000002a0: abb1 93bd d172 49bd 5b40 6a3c 2caf ba3d
000002b0: 8420 163d 4940 2cbe 70ed 203e 0189 a43c
000002c0: 19dc 35bd e2f3 c1bc 19d9 423c 63cc 77bc
000002d0: 4c6e 993b 5e6c 67bc 66af f8bc c8c8 c0bb
000002e0: bfde 043e d53e 403e 681a dcbc 32cc 2fbd
000002f0: 6994 633c 7d5c 81bd 3830 c83d 9187 1e3e
00000300: cac3 06be d15d 93bd 0e6b 0bbe d123 a03d
00000310: ede8 f13d dba1 7b3d 22fc 383e 1d69 013c
00000320: c162 24be c021 2b3e 3965 d1bd f23e 39bd
00000330: 4f81 e33d f45d e9bc 0dad 2b3e 0c7f 9ebc
00000340: abeb 493d 7d25 de3d 1307 7dbd c867 803d
00000350: 6d07 f0bd c654 023e ec47 19be 022e c5b9
00000360: 0157 e4bd 1548 8a3d a1c2 f7bd 3883 2c3d
00000370: 3d91 17bd ae79 a43c 2cbd 453d d87b 963d
00000380: da5c 8a3d af09 8abd f99f 0fbe 514c a33d
00000390: d34e 783d e049 263c f48a 5c3d cfeb e63b
000003a0: c93a 1fbe bf49 b8bd 69b1 9c3d 87ac 6fbd
000003b0: bd58 5ebe 2543 3ebc 4ffc 423d 1d9e db3d
000003c0: 820f 1bbc 5bf7 2f3c e2b3 88be be90 cd3c
000003d0: c497 933d e5f9 e03d 5e3d 283d b886 b03d
000003e0: eaa7 ebbd d2df d53d 8d26 a9bc 3de1 a73d
000003f0: 442f 5ebd 8153 c3bd 6897 58bd c354 cabd

Conv2d_5/weights f4 [24, 3, 3, 24]
0.19799131 0.12568709 0.055571932 0.12922396 0.083075695 -0.074187964 0.07553579 0.17061682
0.18280627 -0.13725048 -0.09920216 0.1707173 0.03340645 0.056199335 0.008536013 0.12413917
0.1070958 -0.012218583 0.040737685 -0.1250837 0.08396734 -0.059134368 0.0062487694 0.07917413
-0.066119894 0.03370787 0.017517585 0.094876416 -0.041352168 0.023515444 -0.18962392 0.06751441
0.19053328 -0.11445239 0.10144718 0.17111959 -0.066446275 0.09162306 0.083713524 0.14287913
0.17869405 0.103846595 -0.066725835 -0.025775284 0.015587204 0.023168748 0.0936063 -0.14694099
-0.045633964 0.05056606 -0.003124218 0.12594214 0.14078403 -0.005329093 -0.0890411 -0.012628748
0.15853019 0.020736765 0.1183802 0.077530496 0.04032124 0.09382238 -0.05522422 0.16903909
0.10422184 -0.019254714 -0.1271957 0.039941207 0.062185932 -0.09961343 0.037602164 -0.13154371
0.003935199 0.06358356 -0.09274627 -0.02804866 0.08633683 -0.20109595 -0.17608488 0.07175388
-0.06023358 0.037538804 0.0857003 -0.07344046 0.0659692 -0.031380646 0.11185384 0.031798318
0.03760341 -0.06864076 -0.06454046 0.019815665 -0.085294604 -0.0057197018 0.14670229 -0.16013226
0.15637177 0.06545482 -0.08978117 -0.17505829 0.030278761 0.03202753 -0.010532553 0.096228726
-0.048432212 -0.012438924 -0.06899734 0.093342245 -0.09503749 0.15224625 0.08772455 0.092811145
0.20324142 0.009301697 -0.13337575 0.13666378 -0.072724104 -0.06480312 0.05543861 0.09043458
-0.024030555 0.012896305 -0.08983865 -0.13214119 -0.020745108 0.033858605 -0.21040222 -0.13651167
-0.033836123 -0.10995656 -0.11369743 0.10435418 -0.05255365 -0.037195418 0.060063392 0.10078425
0.15738168 0.10554878 0.062069565 -0.023518758 -0.08061158 0.09223081 0.011645354 0.12582952
-0.0151376035 -0.010617116 -0.08592602 0.06680003 -0.18299912 -0.10053167 -0.0034658103 -0.18049572
-0.036503773 -0.11886161 -0.076664254 -0.10645473 0.033611633 -0.0741438 0.055286955 -0.108664654
0.07929694 0.037782814 -0.057725884 -0.040138647 0.03402352 -0.06020991 0.07616277 0.037620872
-0.093208745 0.15346703 -0.15600313 0.15264158 -0.19596142 -0.07921589 -0.0013052704 -0.13151516
-0.057512198 -0.0865055 0.19968072 0.019725762 -0.022248244 -0.07459566 -0.15978278 -0.17964348
0.08814083 -0.11298189 0.12345025 0.18168163 0.026269052 -0.10067879 -0.1465029 -0.008206304
-0.035766326 -0.029727286 -0.0828061 0.03671768 -0.26874745 0.026239095 0.09896755 -0.23466323
-0.17192622 -0.21116374 -0.1406856 -0.12108187 0.05078937 -0.19061634 -0.06859409 -0.042249206
0.10849183 -0.1129627 0.13867588 0.17094378 0.033360768 -0.08472932 -0.10837259 0.14592126
0.050521575 -0.104426496 0.048524063 0.10922791 -0.030186908 -0.15139326 -0.09281084 0.17943136
0.07343669 -0.14670281 -0.060489595 0.13562585 -0.004015838 -0.0056343544 -0.14048663 0.08987377
-0.18259868 0.02625614 0.09784779 -0.14410962 0.051464543 -0.006866886 0.16464052 -0.024514554
-0.1798512 -0.079468675 -0.12569034 -0.00015878266 0.10692907 -0.22278692 -0.1421244 0.12661012
0.0862687 -0.03630093 0.07415212 0.107836515 -0.006959747 0.04833196 0.10627032 0.13112219
00000000: 3cbe 4a3e 1eb4 003e 659f 633d 4953 043e
00000010: 9723 aa3d dcef 97bd 82b2 9a3d 2db6 2e3e
00000020: 9131 3b3e 648b 0cbe 812a cbbd 84d0 2e3e
00000030: 34d5 083d 4631 663d a2da 0b3c ad3c fe3d
00000040: 0b55 db3d 7430 48bc 8fdc 263d f115 00be
00000050: 12f7 ab3d e136 72bd 7ac2 cc3b 0c26 a23d
00000060: de69 87bd 4311 0a3d 0a81 8f3c 914e c23d
00000070: e460 29bd 76a3 c03c c62c 42be ff44 8a3d
00000080: 281b 433e 0466 eabd 8ac3 cf3d f939 2f3e
00000090: fc14 88bd dfa4 bb3d ff71 ab3d e84e 123e
000000a0: 93fb 363e 86ad d43d 8ea7 88bd b026 d3bc
000000b0: 7961 7f3c 63cc bd3c a9b4 bf3d b377 16be
000000c0: aeea 3abd 5b1e 4f3d aebf 4cbb faf6 003e
000000d0: b029 103e ac9f aebb 2e5b b6bd cfe8 4ebc
000000e0: bd55 223e 26e0 a93c 5171 f23d 4fc8 9e3d
000000f0: e227 253d f325 c03d cb32 62bd 9518 2d3e
00000100: 4372 d53d 10bc 9dbc 973f 02be 6499 233d
00000110: adb6 7e3d 2002 ccbd ba04 1a3d 65b3 06be
00000120: d8f2 803b 1938 823d c2f1 bdbd 4ec6 e5bc
00000130: 5dd1 b03d 19ec 4dbe 984f 34be b3f3 923d
00000140: 7db7 76bd 4ac2 193d a483 af3d f467 96bd
00000150: dc1a 873d fe88 00bd a013 e53d f43e 023d
00000160: 0906 1a3d 8793 8cbd ca2d 84bd 7654 a23c
00000170: f0ae aebd 566c bbbb 2039 163e b6f9 23be
00000180: ec1f 203e 2d0d 863d 31df b7bd 7b42 33be
00000190: 2a0b f83c 4d2f 033d bb90 2cbc 9113 c53d
000001a0: db60 46bd a1cc 4bbc 7a4e 8dbd 382a bf3d
000001b0: 04a3 c2bd 71e6 1b3e eea8 b33d c513 be3d
000001c0: 851e 503e 2566 183c a793 08be 97f1 0b3e
000001d0: 60f0 94bd 80b7 84bd 9913 633d c435 b93d
000001e0: badb c4bc 064b 533c 53fd b7bd 0550 07be
000001f0: a5f1 a9bc 52af 0a3d ae73 57be b7c9 0bbe
00000200: bf97 0abd e830 e1bd 33da e8bd a5b7 d53d
00000210: 7f42 57bd 395a 18bd 0805 763d f967 ce3d
00000220: aa28 213e f529 d83d a83c 7e3d 69aa c0bc
00000230: af17 a5bd 82e3 bc3d 28cc 3e3c 74d9 003e
00000240: b603 78bc 69f3 2dbc fbf9 afbd 74ce 883d
00000250: 1f64 3bbe 8ce3 cdbd a622 63bb dfd3 38be
00000260: fb84 15bd b76d f3bd 2602 9dbd f004 dabd
00000270: 5aac 093d b4d8 97bd 9374 623d 938b debd
00000280: 6f66 a23d 27c2 1a3d fa71 6cbd 6c68 24bd
00000290: 3f5c 0b3d ab9e 76bd 3afb 9b3d 5818 1a3d
000002a0: 3ae4 bebd 7626 1d3e 49bf 1fbe 134e 1c3e
000002b0: 1caa 48be f13b a2bd 9b15 abba e9ab 06be
000002c0: e991 6bbd cc29 b1bd 1a79 4c3e ec97 a13c
000002d0: f341 b6bc 9cc5 98bd 199e 23be 76f4 37be
000002e0: 2e83 b43d 0d63 e7bd 7cd3 fc3d c00a 3a3e
000002f0: 3232 d73c ae30 cebd db04 16be bc73 06bc
00000300: b67f 12bd a386 f3bc 3f96 a9bd 4765 163d
00000310: 4499 89be 5ff3 d63c 80af ca3d 8f4b 70be
00000320: 6d0d 30be 4f3b 58be e30f 10be c5f9 f7bd
00000330: 8408 503d ee30 43be 0f7b 8cbd 810d 2dbd
00000340: f730 de3d fd58 e7bd 0d01 0e3e e30b 2f3e
00000350: 4da5 083d 9186 adbd 73f2 ddbd 626c 153e
00000360: b6ef 4e3d 8fdd d5bd 2bc1 463d e2b2 df3d
00000370: 894a f7bc d606 1bbe 9c13 bebd dbbc 373e
00000380: fa65 963d 4339 16be f0c3 77bd 81e1 0a3e
00000390: 4a97 83bb 64a0 b8bb badb 0fbe bd0f b83d
000003a0: 26fb 3abe 1e17 d73c 6c64 c83d 7991 13be
000003b0: 7ccc 523d 9d03 e1bb 8697 283e bfd2 c8bc
000003c0: ea2a 38be 79c0 a2bd f8b4 00be e57e 26b9
000003d0: a1fd da3d 4122 64be 0f89 11be 15a6 013e
000003e0: a5ad b03d 49b0 14bd 11dd 973d 64d9 dc3d
000003f0: 970e e4bb bcf7 453d 41a4 d93d e544 063e

Conv2d_6/weights f4 [24, 3, 3, 24]
0.048239168 -0.0499252 0.20408404 0.28423256 -0.13310607 -0.1081549 -0.009026987 -0.061666876
0.22933659 -0.24565424 -0.11811842 -0.14608131 -0.14121178 -0.08440656 0.032518033 0.071241125
0.16666864 -0.112234086 -0.38525698 -0.036002904 -0.026909547 0.06696287 -0.08205389 -0.008721021
-0.038846012 -0.042943645 -0.016890729 -0.025506588 -0.10958298 0.073849075 0.018493814 0.20599796
0.2745849 -0.20052543 0.037864618 0.02444144 0.016169928 0.062028512 0.1310169 0.027055565
0.0020763106 0.1036331 -0.017171372 -0.113825 -0.048082512 0.066338144 0.08930387 0.20805497
0.12796628 -0.07663749 0.030007994 -0.26873234 -0.05182306 0.088110186 0.082203865 -0.099489376
0.12495829 0.016593931 -0.00086275797 -0.004160172 -0.07233185 0.13025257 0.0031948208 -0.18391266
0.06925373 0.03574314 0.0010855475 -0.12719183 0.12700476 0.09231851 -0.029839661 0.20252591
-0.040406775 -0.18882886 0.101939164 0.120889455 -0.24058808 -0.13239665 -0.16807258 0.09900551
0.098569006 -0.14314161 -0.06452461 -0.16634881 -0.064143136 -0.1516745 -0.18980405 0.02609005
0.14671461 -0.14892869 -0.22815306 0.05133603 -0.11771041 0.0035327366 0.058497842 -0.09596901
0.004467671 0.027358491 0.08961246 0.095795214 -0.06464648 -0.04048722 0.0770966 0.18173063
0.12504257 -0.17900877 -0.0154686775 0.07258925 0.0543781 -0.013088833 0.0874229 0.22056225
-0.015219876 0.070785485 -0.13983326 0.09690658 0.011899749 0.11512736 -0.022840856 0.015168685
0.03873067 -0.07087839 0.11089306 -0.26641443 0.047007024 0.1328047 0.116442956 -0.07469089
0.057029102 -0.17499651 0.112895615 0.1222391 0.020548593 0.16347349 0.14522667 -0.0015455819
-0.029242476 0.11807544 0.0072119264 0.014421893 -0.07446135 0.16120264 0.17816082 0.20808876
-0.08368193 -0.20354468 0.27509618 -0.09819536 -0.13457014 -0.0016940092 -0.120535485 0.091369055
0.23640601 -0.17467529 -0.06753255 -0.11948216 -0.110589154 -0.011372516 -0.1059512 -0.21604054
0.0294033 0.009031626 -0.3481199 -0.095426254 -0.13202411 -0.011052549 -0.11366029 -0.13521183
-0.060945895 -0.019122612 0.1022298 -0.14542758 0.047738463 0.18382293 0.0031009102 0.25586084
0.37705937 -0.19197549 0.14189641 -0.058147162 -0.10795369 0.009144429 0.066922024 0.032861024
0.056106325 0.17859346 -0.16197515 -0.027301833 0.04448717 -0.055134073 -0.0462955 0.051451992
-0.012705113 0.016025212 -0.12285003 -0.14996569 0.02926234 0.09739923 -0.016246872 -0.00445404
0.10930624 -0.12963729 0.14545192 0.117855094 -0.08898777 -0.025007725 0.070969194 -0.12015373
-0.1816939 0.0037607434 -0.08073889 -0.026610525 0.12251167 0.109438896 0.10151677 0.12365837
-0.0985229 -0.020243727 -0.2665119 0.13036475 -0.19269031 0.0066807405 -0.097677946 0.3384489
-0.009518399 0.048027933 -0.17071226 -0.0758714 0.0021020055 0.28045636 -0.18936785 0.02205183
-0.14089167 -0.061051093 -0.023593733 -0.16728386 0.100714415 -0.13133352 -0.09208959 -0.06914576
-0.018680543 -0.056038752 -0.24032448 0.078778185 -0.11345446 0.08901046 0.058500953 0.24784257
0.11402461 -0.011958109 -0.098308414 0.051233646 0.10835869 0.19812033 0.12613101 0.2990853
00000000: 6f96 453d 5e7e 4cbd 68fb 503e ee86 913e
00000010: f54c 08be 5180 ddbd ede5 13bc 6896 7cbd
00000020: 36d7 6a3e c98c 7bbe 12e8 f1bd 5796 15be
00000030: d299 10be 59dd acbd a131 053d dee6 913d
00000040: 2fab 2a3e fcda e5bd 6740 c5be c877 13bd
00000050: 6971 dcbc d423 893d df0b a8bd 9de2 0ebc
00000060: ff1c 1fbd ade5 2fbd 6d5e 8abc 31f3 d0bc
00000070: 0b6d e0bd 2f3e 973d 5780 973c 21f1 523e
00000080: 6496 8c3e 8a56 4dbe ee17 1b3d 6a39 c83c
00000090: cc76 843c 9c11 7e3d 4b29 063e a2a3 dd3c
000000a0: b612 083b 973d d43d faaa 8cbc 151d e9bd
000000b0: 2bf2 44bd 4bdc 873d f3e4 b63d 5d0c 553e
000000c0: 9809 033e 1ef4 9cbd 53d3 f53c 4997 89be
000000d0: 6b44 54bd 1d73 b43d 805a a83d 16c1 cbbd
000000e0: 22ea ff3d ffef 873c b52a 62ba 0d52 88bb
000000f0: b922 94bd ee60 053e 3360 513b 9a53 3cbe
00000100: e6d4 8d3d 6667 123d ee48 8e3a 933e 02be
00000110: 890d 023e 7d11 bd3d 4e72 f4bc f462 4f3e
00000120: 9381 25bd 5a5c 41be 7bc5 d03d e494 f73d
00000130: b95c 76be fd92 07be 381b 2cbe 67c3 ca3d
00000140: 8cde c93d b793 12be 7b25 84bd 5857 2abe
00000150: 7a5d 83bd 8f50 1bbe fe5b 42be cdba d53c
00000160: 5b3c 163e c380 18be f5a0 69be bb45 523d
00000170: 2812 f1bd 7c85 673b 6f9b 6f3d 668b c4bd
00000180: 8a65 923b ea1e e03c bd86 b73d 4830 c43d
00000190: 6065 84bd edd5 25bd d2e4 9d3d 9817 3a3e
000001a0: 290b 003e 134e 37be 5670 7dbc aca9 943d
000001b0: 92bb 5e3d 8b72 56bc c70a b33d 12db 613e
000001c0: c95c 79bc fbf7 903d 7330 0fbe f576 c63d
000001d0: 2af7 423c e5c7 eb3d bf1c bbbc 1386 783c
000001e0: 0da4 1e3d b028 91bd e71b e33d 7967 88be
000001f0: 708a 403d f5fd 073e a579 ee3d 8af7 98bd
00000200: 5997 693d 4932 33be d135 e73d 7e58 fa3d
00000210: 8655 a83c 9865 273e 4db6 143e 1f95 caba
00000220: eb8d efbc 89d1 f13d 0652 ec3b ce49 6c3c
00000230: 317f 98bd 4e12 253e ca6f 363e 3815 553e
00000240: 6f61 abbd 046e 50be 68d9 8c3e a61a c9bd
00000250: c1cc 09be 8409 deba 4fdb f6bd b31f bb3d
00000260: 6b14 723e 14de 32be 814e 8abd 10b3 f4bd
00000270: 917c e2bd ca53 3abc f1fc d8bd bb39 5dbe
00000280: 30df f03c 63f9 133c c63c b2be d76e c3bd
00000290: 5431 07be c015 35bc bac6 e8bd f874 0abe
000002a0: 67a2 79bd 06a7 9cbc db5d d13d f8ea 14be
000002b0: 6889 433d 143c 3c3e a438 4b3b 3100 833e
000002c0: ed0d c13e 3995 44be 4b4d 113e b82b 6ebd
000002d0: d316 ddbd 84d2 153c 6a0e 893d 4899 063d
000002e0: bfcf 653d 34e1 363e d0dc 25be 18a8 dfbc
000002f0: 2e38 363d 44d4 61bd 5aa0 3dbd 53bf 523d
00000300: 1b29 50bc 4e47 833c cc98 fbbd 9b90 19be
00000310: 93b7 ef3c 3f79 c73d 2918 85bc 32f3 91bb
00000320: f3db df3d a3bf 04be 59f1 143e 035e f13d
00000330: 383f b6bd 00dd ccbc 4c58 913d 2913 f6bd
00000340: f70d 3abe ce76 763b 6e5a a5bd 51fe d9bc
00000350: 66e7 fa3d 8021 e03d 06e8 cf3d 9940 fd3d
00000360: 60c6 c9bd 2cd6 a5bc 3f74 88be 567e 053e
00000370: 9c50 45be 1dea da3b 600b c8bd 2d49 ad3e
00000380: 0ff3 1bbc f0b8 443d 32cf 2ebe 7762 9bbd
00000390: cdc1 093b fa97 8f3e a5e9 41be 0aa6 b43c
000003a0: e845 10be b610 7abd a547 c1bc 764c 2bbe
000003b0: 5c43 ce3d 4b7c 06be 7899 bcbd 4b9c 8dbd
000003c0: f007 99bc e488 65bd 9f17 76be 7556 a13d
000003d0: d05a e8bd 1e4b b63d b29e 6f3d 71ca 7d3e
000003e0: bc85 e93d f2eb 43bc ec55 c9bd 5fda 513d
000003f0: 29eb dd3d 0ee0 4a3e 7d28 013e b521 993e

Conv2d_7/weights f4 [24, 3, 3, 24]
-0.00089041877 0.042685285 0.010843444 0.13670067 0.046942692 0.09862657 -0.015323903 0.043711524
0.24119404 0.06672328 0.080380745 0.076089144 0.05093835 -0.0010928251 0.15602419 -0.014412582
0.025855526 0.16286317 -0.07337293 -0.04445998 -0.002068316 -0.05754743 0.014878808 -0.05095397
0.019228887 -0.0733147 0.014375922 -0.024973497 -0.03357118 0.1169697 -0.15364847 -0.08373163
-0.015110177 -0.019449394 0.10160205 0.14998542 -0.08738321 0.11109267 -0.18694405 0.045732845
-0.08644576 0.15928806 0.043542713 0.03148045 0.13343045 -0.052712224 0.039831527 -0.1452847
-0.18623373 -0.18718228 0.047572274 -0.09576441 0.09888198 -0.12553912 0.00860688 0.02277863
0.13528526 0.08730288 -0.14213267 0.23827049 0.043857962 -0.18860412 0.084781975 -0.099425025
-0.1459646 0.026521888 0.06343902 0.015573542 0.01776709 -0.11375048 0.07079398 -0.07343667
-0.09974269 -0.23061721 -0.1490715 0.09963846 0.04562643 0.100920044 0.16847922 -0.06165934
0.1390632 0.082591735 -0.072166815 0.022444904 -0.10166105 -0.10083196 -0.018910712 0.06537177
-0.14299634 -0.064079486 -0.18828 0.12710434 -0.07655943 -0.08209414 -0.16831852 0.057262313
-0.16932523 -0.19831374 -0.13007697 -0.08399987 -0.045889847 0.0067347544 0.038976435 0.15601848
-0.06929741 0.095548615 0.04321053 -0.06184169 -0.12184128 0.12924321 -0.13915761 0.07346649
0.0066748103 0.07267852 0.023421887 -0.10524197 -0.14677586 0.10045692 -0.2088605 0.04753229
-0.22399932 -0.09520248 -0.19496338 -0.07699039 -0.057599306 0.0419536 -0.010805794 -0.10094986
0.07891302 0.16169724 0.088758186 -0.0074486053 -0.13842636 0.1070405 0.068037555 -0.1041081
-0.11238823 -0.0010546307 0.05688417 -0.05046702 0.0500198 0.052184347 -0.06500978 -0.0006809584
-0.23226127 -0.20205483 -0.18381494 -0.014526844 0.06821344 -0.09325258 0.079734474 -0.17344445
-0.0074760513 0.0007928571 -0.039235674 -0.044504393 -0.043615356 0.086413704 0.008324892 -0.097949475
-0.16172278 0.019144008 0.022787683 0.08369681 0.027514467 -0.22669643 -0.15042122 -0.117720984
-0.21896155 -0.05897523 -0.25058848 0.07708672 0.07529328 -0.09985297 0.046036493 -0.16183531
-0.08361661 0.10008808 -0.20286272 0.06811672 -0.11077474 -0.25519615 0.0055639273 -0.03948621
0.022826795 -0.116091244 -0.12645648 0.008321631 -0.14201286 -0.042529013 -0.0028878902 0.068079256
-0.33980972 -0.19956867 -0.25162196 0.06729709 -0.114843376 -0.087531805 0.16862832 -0.11718762
0.061704177 -0.048993673 -0.08178636 -0.16914782 0.007115551 -0.032817 -0.028466301 -0.17564721
-0.09442285 0.05261427 -0.008504055 -0.08482653 -0.14955889 0.089744896 -0.11767477 -0.0069012702
-0.20187491 -0.3432698 0.03368936 0.042974364 0.16853945 0.050416537 -0.07618387 -0.28283125
-0.18513615 -0.0028972644 -0.030392056 -0.14589085 -0.09100756 -0.012227628 -0.024757925 0.1420999
0.05701597 0.041163284 0.07155132 -0.11080565 -0.084294975 -0.064969935 -0.010388014 0.06016141
-0.2122197 -0.1990254 0.0114773195 -0.07340702 0.16902733 -0.030964566 -0.009914772 -0.0436973
0.046344355 0.07197621 -0.027996933 -0.084165685 0.081346124 0.1994705 -0.30892426 0.10172428
00000000: fe6a 69ba c4d6 2e3d b3a8 313c 43fb 0b3e
00000010: fb46 403d bafc c93d 1c11 7bbc db0a 333d
00000020: 92fb 763e 37a6 883d a99e a43d a0d4 9b3d
00000030: bba4 503d 203d 8fba cec4 1f3e c022 6cbc
00000040: f8ce d33c 9ac5 263e 8c44 96bd ab1b 36bd
00000050: 968c 07bb dbb6 6bbd 3ec6 733c 1cb5 50bd
00000060: e685 9d3c 0426 96bd fd88 6b3c 3895 ccbc
00000070: ef81 09bd cf8d ef3d 0656 1dbe 7d7b abbd
00000080: ad90 77bc 5654 9fbc bc14 d03d c795 193e
00000090: f8f5 b2bd 8e84 e33d 436e 3fbe 5d52 3b3d
000000a0: 7a0a b1bd 691c 233e d859 323d a5f1 003d
000000b0: fea1 083e c6e8 57bd 6226 233d 83c5 14be
000000c0: 0eb4 3ebe b6ac 3fbe 25db 423d 2220 c4bd
000000d0: a382 ca3d 548d 00be df03 0d3c 409a ba3c
000000e0: 3888 0a3e dacb b23d 3a8b 11be 2efd 733e
000000f0: 68a4 333d 7021 41be 2ca2 ad3d 599f cbbd
00000100: be77 15be 6e44 d93c 51ec 813d 2b28 7f3c
00000110: 4a8c 913c 03f6 e8bd 6ffc 903d f765 96bd
00000120: e545 ccbd eb26 6cbe 33a6 18be 400f cc3d
00000130: c8e2 3a3d 2baf ce3d d185 2c3e 818e 7cbd
00000140: 9566 0e3e db25 a93d 32cc 93bd 60de b73c
00000150: ab33 d0bd fd80 cebd a3ea 9abc a2e1 853d
00000160: a26d 12be 1b3c 83bd 79cc 40be a427 023e
00000170: 31cb 9cbd f920 a8bd b15b 2cbe e38b 6a3d
00000180: 9863 2dbe c212 4bbe e632 05be 2008 acbd
00000190: fef6 3bbd 37af dc3b c1a5 1f3d 4fc3 1f3e
000001a0: cdeb 8dbd feae c33d 86fd 303d b64d 7dbd
000001b0: ec87 f9bd 5558 043e 557f 0ebe 9975 963d
000001c0: 5eb8 da3b 7ad8 943d 42df bf3c 1a89 d7bd
000001d0: 694c 16be 5cbc cd3d 87df 55be 38b1 423d
000001e0: 1460 65be 85f9 c2bd 7ba4 47be 23ad 9dbd
000001f0: 40ed 6bbd 8ad7 2b3d c90a 31bc cdbe cebd
00000200: 269d a13d f693 253e dac6 b53d 6e13 f4bb
00000210: a4bf 0dbe 0d38 db3d 4657 8b3d a136 d5bd
00000220: cd2b e6bd 893b 8aba 60ff 683d 82b6 4ebd
00000230: 90e1 4c3d 41bf 553d d923 85bd 5882 32ba
00000240: e6d5 6dbe 76e7 4ebe fc39 3cbe 0002 6ebc
00000250: 7db3 8b3d 35fb bebd d44b a33d 6c9b 31be
00000260: aaf9 f4bb bdd7 4f3a 96b5 20bd 3d4a 36bd
00000270: 04a6 32bd abf9 b03d 2165 083c bc99 c8bd
00000280: a89a 25be e5d3 9c3c 3cad ba3c 3c69 ab3d
00000290: 0566 e13c 1c23 68be 0508 1abe b317 f1bd
000002a0: 7537 60be 0390 71bd 224d 80be a4df 9d3d
000002b0: 5d33 9a3d b77f ccbd c390 3c3d 28b8 25be
000002c0: 2f3f abbd fbfa cc3d 3fbb 4fbe c780 8b3d
000002d0: dedd e2bd 12a9 82be 9b51 b63b 4bbc 21bd
000002e0: 42ff ba3c 3fc1 edbd cf7d 01be 7357 083c
000002f0: d26b 11be e732 2ebd c242 3dbb 236d 8b3d
00000300: 8afb adbe bb5b 4cbe 98d4 80be 0fd3 893d
00000310: 0133 ebbd e043 b3bd e7ac 2c3e 1000 f0bd
00000320: 85bd 7c3d 97ad 48bd 9b7f a7bd 1635 2dbe
00000330: 9129 e93b 1e6b 06bd 2932 e9bc dddc 33be
00000340: c460 c1bd 1082 573d 9854 0bbc 88b9 adbd
00000350: f725 19be 2ccc b73d 78ff f0bd 0d24 e2bb
00000360: 4cb8 4ebe 0fc1 afbe dbfd 093d e305 303d
00000370: 9b95 2c3e 9281 4e3d 4a06 9cbd 42cf 90be
00000380: 5594 3dbe 08e0 3dbb c3f8 f8bc 6964 15be
00000390: 2c62 babd 6456 48bc 22d1 cabc a382 113e
000003a0: 9489 693d d59a 283d 8089 923d 13ee e2bd
000003b0: d8a2 acbd f50e 85bd 7d32 2abc d06b 763d
000003c0: 1f50 59be 51cd 4bbe 5e0b 3c3c 6b56 96bd
000003d0: 8015 2d3e 67a9 fdbc 9171 22bc f1fb 32bd
000003e0: 94d3 3d3d 4368 933d d359 e5bc 0f5f acbd
000003f0: cc98 a63d ff41 4c3e 522b 9ebe d254 d03d
